deepSIP/trained_models/Domain.pth (torch_old, 301652 bytes, 11 tensors)

module.conv1.convolution.weight f4 [8, 1, 25]
0	0xbde46a5a	-0.111530975
1	0xbdefd422	-0.11710383
2	0xbecdc899	-0.40192106
3	0xbd613fdd	-0.054992545
4	0xbca9cb0b	-0.020726701
5	0xbe5fbff0	-0.21850562
6	0x3d9c1c00	0.07622528
7	0x3d980c24	0.07424191
8	0xbe13c511	-0.14430644
9	0xbe6efb05	-0.23337944
10	0xbd3adc9a	-0.04562054
11	0xbd7f39fb	-0.062311154
12	0x3df9bb5f	0.12193941
13	0xbc205518	-0.009785913
14	0x3e153d6d	0.14574213
15	0x3cd4beef	0.02596995
16	0x3e66c370	0.22535491
17	0x3d391a46	0.045191072
18	0x3d879df8	0.06621927
19	0x3e6fbf05	0.23412712
20	0x3d8f4692	0.06995882
21	0x3e42b561	0.19014503
22	0x3dbac11b	0.09118863
23	0x3d200ba3	0.039073598
24	0x3c7bebef	0.015376075
25	0xbe5cd99a	-0.21567383
26	0x3dfed4ac	0.12442908
27	0xbe3ce659	-0.18447246
28	0xbca8258e	-0.02052572
29	0xbc71ab4f	-0.014750316
30	0xbe7790c8	-0.24176323
31	0xbe07be44	-0.13256174
32	0xbe304fdd	-0.17217965
33	0xbe383d78	-0.17992198
34	0xbdaf0f00	-0.08547783
35	0xbe1b97b7	-0.15194593
36	0x3e047602	0.12935641
37	0xbd2a9e1a	-0.041654684
38	0x3d3617e3	0.044456374
39	0x3d529b1a	0.051417448
40	0xbe1cd02e	-0.15313789
41	0x3bdae657	0.0066802907
42	0x3e5ce69f	0.2157235
43	0x3e0c9e58	0.13732278
44	0xbd3b4287	-0.045717742
45	0x3ebf551b	0.37369618
46	0x3e50e9a8	0.20401633
47	0x3e4367a3	0.19082503
48	0x3d7a6510	0.061131537
49	0x3d21077d	0.039313782
50	0xbe40997b	-0.18808548
51	0xbdc163c8	-0.0944286
52	0xbe99dde3	-0.300521
53	0xbe4f3bb9	-0.20237626
54	0xbd364904	-0.044503227
55	0xbe17a328	-0.14808333
56	0xbdc3e926	-0.09565954
57	0xbde88a53	-0.11354508
58	0xbd2132eb	-0.0393552
59	0xbc95ec0c	-0.018301032
60	0x3c96c5db	0.018404892
61	0x3da6a4d4	0.08136907
62	0x3d4bf9f0	0.049798906
63	0xbb0da204	-0.0021611461
64	0xbdc4d296	-0.096104786
65	0x3d8e7aca	0.06957014
66	0x3e44beae	0.19213364
67	0x3e6840d6	0.22680983
68	0x3ec046b7	0.3755395
69	0x3dd9066f	0.1059693
70	0x3e2f4224	0.17115074
71	0x3e76a9ea	0.24088255
72	0x3e9bdaee	0.30440468
73	0x3bf7d311	0.007563003
74	0x3e0dfe57	0.13866554
75	0xbd7d9d67	-0.06191769
76	0xbdaadfb9	-0.08343453
77	0xbe0ad475	-0.13557608
78	0xbe7adab5	-0.24497493
79	0x3b0476a7	0.0020212324
80	0x3bd83fa4	0.0065993834
81	0xbd7ba995	-0.061441023
82	0xbdbd1525	-0.092325486
83	0x3ce9e392	0.028550897
84	0xbd805aa0	-0.06267285
85	0xbe1e547a	-0.15461913
86	0x3dcf8d6c	0.10134396
87	0xbdd0b49e	-0.101907
88	0x3dc0fd5e	0.09423326
89	0x3d8b6796	0.06806867
90	0xbdd928d3	-0.1060349
91	0xbe031d97	-0.12804256
92	0xbda2da90	-0.07951844
93	0xbdb0adf0	-0.08626926
94	0xbe36edb7	-0.17864119
95	0xbd4ca87d	-0.04996537
96	0xbe0038a5	-0.12521608
97	0xbe1b4d3b	-0.1516618
98	0xbe5428ec	-0.20718735
99	0xbcae54d7	-0.02128069
100	0xbe192770	-0.1495645
101	0xbdbedf41	-0.09319926
102	0xbe7850c1	-0.24249555
103	0x3d6b3a18	0.05742845
104	0xbe066330	-0.13123775
105	0xbe387173	-0.18012027
106	0xbe66ec01	-0.22550966
107	0xbe1f12c2	-0.155345
108	0x3c1ba578	0.0094999
109	0xbe1ea6fa	-0.15493384
110	0xbdff76f1	-0.12473858
111	0xbd0c299f	-0.03421938
112	0x3d97c68f	0.07410919
113	0x3df4c500	0.11951637
114	0xbd65ba59	-0.056085918
115	0xbdc6effc	-0.09713742
116	0xbd4ccfe6	-0.050002955
117	0x3e0886c9	0.13332666
118	0x3e1e2183	0.15442471
119	0xbcf33473	-0.029688096
120	0xbd70a9f4	-0.05875583
121	0x3cf1ffd6	0.029540937
122	0x3db9fbc3	0.09081223
123	0x3e6da688	0.23208058
124	0x3dfe3beb	0.12413772
125	0xbdfa8fa9	-0.12234432
126	0x3c14466e	0.009049995
127	0xbd69755a	-0.05699668
128	0x3c8706ac	0.016482674
129	0xbcd3fc82	-0.025877241
130	0xbc0d336e	-0.008618219
131	0xbd253695	-0.040335257
132	0xbcd5c475	-0.026094655
133	0x3d3be360	0.04587114
134	0x3ded5136	0.115877554
135	0x3c5fecce	0.0136672985
136	0x3b77c883	0.0037808723
137	0x3de3f495	0.11130635
138	0x3e96df87	0.29467413
139	0x3cd796c9	0.026317017
140	0x3dca51cb	0.09878882
141	0x3e62691c	0.22110409
142	0x3d80796e	0.06273161
143	0x3e306e14	0.17229491
144	0x3e874d98	0.26426387
145	0x3e00136a	0.12507406
146	0xbb1d7ddf	-0.0024031324
147	0xbdd281d8	-0.10278672
148	0x3da9ea82	0.08296682
149	0x3c0e35cf	0.008679821
150	0xbd68a922	-0.056801923
151	0xbe55785f	-0.20846699
152	0xbe32f5e3	-0.17476611
153	0xbdc0d216	-0.09415071
154	0xbd93089c	-0.071793765
155	0xbe11eb8b	-0.14250009
156	0xbcdebd56	-0.027189892
157	0xbc4ddc24	-0.012564693
158	0xbd01daea	-0.031702913
159	0x3e4bbd7b	0.198965
160	0x3e92d508	0.28678155
161	0x3e6f1802	0.23349002
162	0x3e7c087f	0.24612616
163	0x3df3569d	0.118817545
164	0x3e88e747	0.2673895
165	0x3eb5d932	0.3551727
166	0x3eab0ce9	0.33408287
167	0x3e37fc17	0.17967258
168	0x3dd9382e	0.106064186
169	0x3dde85f6	0.10865395
170	0xbe4ad492	-0.19807652
171	0xbdaaf69a	-0.08347817
172	0x3d1d2dfe	0.03837394
173	0xbea4ba8b	-0.3217357
174	0xbed46a7f	-0.414875
175	0x3dc1d8db	0.0946519
176	0x3e31ab0a	0.17350402
177	0xbde01d88	-0.10943133
178	0x3c8f00bd	0.017456407
179	0x3d6c9cf4	0.05776687
180	0x3e4c8e08	0.19976056
181	0x3d2c3c5a	0.042049743
182	0x3d38f354	0.04515393
183	0xbe6a6e09	-0.22893538
184	0xbe0124bf	-0.12611674
185	0xbe67072d	-0.22561331
186	0xbe9d5a1d	-0.30732813
187	0xbe7d1c0e	-0.24717733
188	0xbe8f557b	-0.27994904
189	0xbe07f5ee	-0.13277408
190	0xbe38fadc	-0.18064445
191	0xbd0407cb	-0.032233994
192	0xbda01195	-0.078158535
193	0xbb9ea513	-0.0048414557
194	0x3b4e6e1d	0.0031498738
195	0x3e0bb0bf	0.13641642
196	0xbd064251	-0.032778088
197	0x3e523b73	0.2053049
198	0xbd76a4ec	-0.060215876
199	0x3b3802bb	0.00280778

module.conv1.convolution.bias f4 [8]
0	0x3e8a6284	0.27028286
1	0x3ea4cf2d	0.32189313
2	0x3d9260ea	0.07147391
3	0x3e6ff68f	0.23433898
4	0x3e912330	0.28347158
5	0xbe8b2fd1	-0.2718492
6	0xbce2310d	-0.02761128
7	0x3e94ddfb	0.29075608

module.conv2.convolution.weight f4 [16, 8, 25]
0	0xbdf782f9	-0.12085528
1	0xbc372a76	-0.011179557
2	0xbd90f1af	-0.070773475
3	0x3be2d4d3	0.0069223433
4	0xbdea9cb6	-0.114556715
5	0xbd5944f1	-0.053044263
6	0xbe224ed8	-0.15850389
7	0x3a2bfce8	0.00065608183
8	0xbcc6d4b8	-0.024271354
9	0x3d8da185	0.06915573
10	0xbc87db5e	-0.016584095
11	0xbd9c6728	-0.07636863
12	0xbdbe6e96	-0.09298436
13	0xbdedaafc	-0.11604878
14	0xbdb34f4f	-0.08755361
15	0xbd9c863a	-0.07642789
16	0x3c90dbe6	0.01768298
17	0xbd9aed26	-0.07564764
18	0xbd7831ed	-0.060594488
19	0xbdbc51cb	-0.09195288
20	0xbcf7c2b2	-0.030244205
21	0xbdb7086c	-0.08937153
22	0xbd3ba13e	-0.04580807
23	0xbd5629dd	-0.052286018
24	0xbdb274c9	-0.08713681
25	0xbce9c088	-0.028534189
26	0xbde28cb4	-0.11061993
27	0xbc9b7273	-0.018975472
28	0xbdb9302f	-0.090423934
29	0xbd9b0fdc	-0.07571384
30	0x3b539d8e	0.0032289955
31	0xbda3de06	-0.08001332
32	0xbd8555fe	-0.06510542
33	0xbdd36349	-0.103216715
34	0xbe09d061	-0.13458396
35	0xbdb7f15c	-0.089815825
36	0xbd7205a3	-0.059087407
37	0xbe82358c	-0.25431478
38	0xbe5d11bb	-0.21588795
39	0xbe0d4bf9	-0.13798513
40	0xbc8a2b8f	-0.016866473
41	0xbb9d5b13	-0.0048021167
42	0xbdb20c48	-0.08693749
43	0x3d4b0ae8	0.049570948
44	0x3b37c38d	0.0028040141
45	0xbd95c8ed	-0.07313714
46	0xbe0ea28d	-0.13929196
47	0xbe03ff5d	-0.12890382
48	0xbe1f7bbc	-0.15574545
49	0xbe213972	-0.1574457
50	0xbe128071	-0.14306809
51	0x3c398769	0.011323788
52	0xbd420fab	-0.047378223
53	0xbd27b6fc	-0.040945992
54	0xbdc7cc63	-0.097557805
55	0x3d26aede	0.04069411
56	0x3dac9598	0.0842697
57	0x3a4bcccd	0.0007774353
58	0xbd073201	-0.03300667
59	0x3c2c6d81	0.010524155
60	0xbcb20604	-0.021731384
61	0x3a939538	0.0011259681
62	0xbcc40a99	-0.023930835
63	0xbd3d94d1	-0.0462845
64	0xbdb7b3a6	-0.08969812
65	0x3da49bbb	0.08037516
66	0x3ccc2eb5	0.024924615
67	0xbc55a7a2	-0.013040455
68	0x3dafbec2	0.08581306
69	0xbdd4c716	-0.10389535
70	0xbdedcaaf	-0.116109245
71	0xbd9e1a31	-0.07719839
72	0xbd5f370a	-0.05449585
73	0x3b21c1ca	0.0024682158
74	0xbd5df54c	-0.05418901
75	0x83c19cef	-1.1379551e-36
76	0x0013504d	1.773681e-39
77	0x00001130	6.166e-42
78	0x800074f7	-4.1959e-41
79	0x00003c10	2.1546e-41
80	0x80007f1d	-4.56e-41
81	0x000021ea	1.2166e-41
82	0x80000a9b	-3.805e-42
83	0x8003d61b	-3.52313e-40
84	0x0003c4dc	3.46126e-40
85	0x00023f6b	2.06421e-40
86	0xb2a3e55e	-1.9080002e-08
87	0x01fc3cd0	9.265744e-38
88	0x095292eb	2.5346911e-33
89	0x01293120	3.1075643e-38
90	0x88443e68	-5.9054963e-34
91	0x843e60cf	-2.2378845e-36
92	0x8a91d7ae	-1.4044122e-32
93	0xb603b4fc	-1.9625868e-06
94	0xb935d973	-0.00017342511
95	0xba054fb7	-0.0005085426
96	0xba34478b	-0.0006877116
97	0xba5056dd	-0.0007947514
98	0xba69dcc2	-0.000892114
99	0xba6bc390	-0.00089936797
100	0xbcea9589	-0.028635757
101	0xbd708df1	-0.058729116
102	0xbb4d0b44	-0.0031287232
103	0xbc5789df	-0.01315543
104	0xbc299df8	-0.010352604
105	0xba9da1d2	-0.0012026376
106	0xbbda7b8d	-0.0066675604
107	0xba58f2be	-0.00082759175
108	0xbb0f3ce2	-0.0021856357
109	0xb97d7e64	-0.00024175044
110	0xb90a0792	-0.00013163526
111	0xb91fac8b	-0.00015227699
112	0xb707c857	-8.093272e-06
113	0xb73f96d5	-1.14196055e-05
114	0xb7f54d91	-2.9242396e-05
115	0xb7f18b61	-2.8794342e-05
116	0xb959a76d	-0.00020757104
117	0xba4a7099	-0.0007722467
118	0xbac0f3d1	-0.00147211
119	0xbaaf6c41	-0.0013383703
120	0xbab97b08	-0.0014151046
121	0xbad8637a	-0.0016509139
122	0xbba91318	-0.005159747
123	0xbcaf55e3	-0.021403259
124	0xbd224129	-0.039612923
125	0x394d18c6	0.00019559552
126	0xbceff309	-0.029290693
127	0xbd1b2d7f	-0.037885185
128	0x3e00b7f4	0.12570173
129	0x3e3b1cda	0.18272725
130	0x3e1d5bbf	0.1536703
131	0x3db77871	0.08958519
132	0x3dc6c821	0.0970614
133	0x3d9437b6	0.072371885
134	0x3d9068b2	0.07051219
135	0x3e65c6fa	0.22439185
136	0x3c61e8f7	0.013788453
137	0xbd9721c3	-0.073794864
138	0x3dd44cb5	0.10366193
139	0xbddfaea4	-0.10921982
140	0x3e38fd01	0.18065263
141	0x3ce76e71	0.028250905
142	0xbdd338b2	-0.10313548
143	0x3e56ff54	0.20995837
144	0x3d9568ce	0.072953805
145	0xbc2bc729	-0.010484495
146	0xbde19b99	-0.11016006
147	0xbdb10c6d	-0.08644948
148	0x3c3570ee	0.011074288
149	0x3c40fd58	0.011779152
150	0xbe4071b2	-0.18793371
151	0xbc324e03	-0.010882857
152	0xbdb4a7fe	-0.088211045
153	0xbd0cd8da	-0.034386493
154	0x3cb009ed	0.021489108
155	0x3e1024dc	0.1407656
156	0xbd3ed294	-0.04658754
157	0x3e5af0a2	0.21380857
158	0xbcf6119d	-0.030037696
159	0x3e218cda	0.15776387
160	0x3c5ef0f7	0.013607255
161	0xbccdc5b7	-0.025118692
162	0x3c908fe8	0.017646745
163	0xbdbf2ba9	-0.093344994
164	0xbe447b96	-0.1918777
165	0xbcf829f0	-0.030293435
166	0xb9e8f4b6	-0.00044432812
167	0xbdc965c8	-0.09833866
168	0x3df3bcce	0.11901246
169	0x3db20aae	0.08693443
170	0xbcc59ace	-0.024121668
171	0x3e635c0e	0.22203085
172	0x3d422a0b	0.047403377
173	0x3c2e5473	0.010640251
174	0xbd90e756	-0.07075374
175	0xb3fb8838	-1.17128764e-07
176	0xb1f376e0	-7.0857453e-09
177	0x37adefa1	2.0734793e-05
178	0x37d12e27	2.4936233e-05
179	0x379e7412	1.8889117e-05
180	0xb3e2b24d	-1.0556378e-07
181	0xb3f7f520	-1.1546422e-07
182	0xb3bcb9ba	-8.788216e-08
183	0x81941ee2	-5.441093e-38
184	0x80002354	-1.2673e-41
185	0x18594fdb	2.808691e-24
186	0xb7fbe3e6	-3.0027655e-05
187	0xb70b3de0	-8.299452e-06
188	0xb96592b5	-0.00021893794
189	0xba17ccd6	-0.0005790716
190	0xba4a597e	-0.0007719024
191	0xba6c0847	-0.0009003919
192	0xbad7498b	-0.0016425116
193	0xbb41c8fe	-0.0029569264
194	0xbc009ce6	-0.0078499075
195	0xbca7a8be	-0.020466205
196	0xbcf12339	-0.02943574
197	0xbcc483bf	-0.023988603
198	0xbd879737	-0.06620639
199	0x3c3f6d9a	0.011683846
200	0xbdfe183f	-0.12406968
201	0xbcab22f6	-0.020890694
202	0xbd977603	-0.07395556
203	0xbd980697	-0.07423132
204	0xbdcbecd6	-0.09957282
205	0xbab74b5f	-0.0013984254
206	0xbc796a5d	-0.015223113
207	0x3e1e6590	0.1546843
208	0x3d19896e	0.03748458
209	0x3e2b1beb	0.16709869
210	0x3e127471	0.14302231
211	0x3e3d7e3f	0.1850519
212	0x3d5d807b	0.054077607
213	0x3d6fa5f2	0.058507867
214	0x3d92d400	0.07169342
215	0x3e0e7915	0.13913377
216	0x3e23a898	0.15982282
217	0xbcf0c3fa	-0.029390324
218	0xbd417f9c	-0.04724084
219	0xbcce0e61	-0.02515334
220	0xbe275ee3	-0.1634479
221	0xbdf59abc	-0.11992404
222	0xbd45861c	-0.0482236
223	0x3c4165b8	0.011804037
224	0x3d072e7d	0.03300332
225	0xbd0076c5	-0.031363267
226	0x3c4ea6a5	0.012612973
227	0xbea907ad	-0.3301367
228	0xbdec9296	-0.115513965
229	0xbe32881d	-0.17434736
230	0xbd75ad69	-0.05997983
231	0x3e1e3b85	0.15452392
232	0x3d302d1c	0.04301177
233	0x3e94c09d	0.29053202
234	0x3e490c76	0.1963366
235	0x3e872ef4	0.2640301
236	0x3e565061	0.209291
237	0x3e162f7a	0.14666548
238	0x3e46cf39	0.19414987
239	0x3dff2162	0.12457539
240	0xbd3ab468	-0.045582205
241	0xba96ab9b	-0.0011495234
242	0xbd94557d	-0.07242868
243	0xbd942613	-0.072338246
244	0xbca0981f	-0.019603787
245	0xbe57bf46	-0.21069059
246	0xbcfd06df	-0.030887065
247	0xbdd969ac	-0.106158584
248	0xbce07af8	-0.027402386
249	0x3d8bc269	0.0682419
250	0xbe20c93a	-0.15701762
251	0xbe402663	-0.18764643
252	0xbde8bcf0	-0.11364162
253	0xbe7cca3c	-0.24686521
254	0xbe657611	-0.2240832
255	0xbdf796cf	-0.12089311

module.conv2.convolution.bias f4 [16]
0	0xbd947418	-0.072487056
1	0x3da11174	0.07864657
2	0x3d85e7f5	0.06538383
3	0xac21b897	-2.2981944e-12
4	0x3d083122	0.03324998
5	0x3d97d5e0	0.0741384
6	0x3e3104d4	0.17286998
7	0xbd5b14e3	-0.053486716
8	0x3cb06130	0.021530718
9	0x3d131ba4	0.035915032
10	0x3d67c1ef	0.056581434
11	0x3e132f58	0.14373529
12	0x3e62245c	0.22084183
13	0x3b499aef	0.0030762514
14	0x3d9a5b5f	0.07536959
15	0x3bba971c	0.005694283

module.conv3.convolution.weight f4 [32, 16, 25]
0	0x0000712b	4.0597e-41
1	0x800011df	-6.411e-42
2	0x80001c80	-1.0224e-41
3	0x80007727	-4.2744e-41
4	0x80006bee	-3.8718e-41
5	0x8000a68b	-5.9744e-41
6	0x00005c8a	3.3197e-41
7	0x80006700	-3.695e-41
8	0x00004c86	2.7451e-41
9	0x00006597	3.6444e-41
10	0x0000a183	5.794e-41
11	0x8000394b	-2.0553e-41
12	0x80005176	-2.9223e-41
13	0x8000443a	-2.4475e-41
14	0x8278fb3d	-1.8292264e-37
15	0x8a872e00	-1.301733e-32
16	0x8c9afb20	-2.3878597e-31
17	0x8d67fe52	-7.14885e-31
18	0x8a06d7be	-6.492442e-33
19	0x8bf90809	-9.59234e-32
20	0x8e1ecf3e	-1.9574787e-30
21	0x8d499d1b	-6.2127016e-31
22	0x889af333	-9.325714e-34
23	0x816fcd98	-4.4044873e-38
24	0x00009df4	5.6663e-41
25	0xa51e2cce	-1.3719496e-16
26	0xac39e240	-2.6415675e-12
27	0xac640c64	-3.2407627e-12
28	0xac0f57af	-2.0370196e-12
29	0xab2c97e0	-6.1317444e-13
30	0xa16520fa	-7.763186e-19
31	0xa3d5fcf9	-2.3200644e-17
32	0xa6170f25	-5.2409174e-16
33	0xa5afbd81	-3.0486074e-16
34	0xaba9ae06	-1.2056473e-12
35	0xab97609b	-1.0756009e-12
36	0xaa234ed6	-1.450466e-13
37	0xa6a73767	-1.160297e-15
38	0xa0a78475	-2.8378553e-19
39	0x9da397bf	-4.3302643e-21
40	0xa2c1aa1e	-5.2492873e-18
41	0xa79afa43	-4.301492e-15
42	0xa99bd113	-6.9196513e-14
43	0xa97b88df	-5.5851913e-14
44	0xa80871cd	-7.574193e-15
45	0xa760d01d	-3.1199063e-15
46	0x92cee9a7	-1.3058027e-27
47	0x9238184b	-5.8090106e-28
48	0x959913d3	-6.1827485e-26
49	0x9d925e4a	-3.874337e-21
50	0xa727d550	-2.3291543e-15
51	0xaba675ce	-1.1827707e-12
52	0xac4770e1	-2.8342261e-12
53	0xaca65810	-4.7277807e-12
54	0xace8740c	-6.6067204e-12
55	0xad4c1e45	-1.1602779e-11
56	0xad4410a0	-1.1145002e-11
57	0xae5ba9e2	-4.994572e-11
58	0xaf966c08	-2.7361602e-10
59	0xae74c454	-5.565355e-11
60	0xaf1f461a	-1.4485871e-10
61	0x2d7c3b7a	1.4337748e-11
62	0xad9589b0	-1.7000484e-11
63	0xacfc450f	-7.169938e-12
64	0xab53775e	-7.5127914e-13
65	0xaab384c7	-3.188892e-13
66	0xa9b88722	-8.194683e-14
67	0xaa9efc7b	-2.8241632e-13
68	0xab613c09	-8.0019373e-13
69	0xab9f5e20	-1.1323754e-12
70	0xaace7e01	-3.6680384e-13
71	0xaa13a742	-1.3114252e-13
72	0x9fc45487	-8.314907e-20
73	0xa080ba89	-2.1807482e-19
74	0xa1545843	-7.1945207e-19
75	0x00006637	3.6668e-41
76	0x80003efd	-2.2596e-41
77	0x00003293	1.8143e-41
78	0x00003d5a	2.2009e-41
79	0x80003778	-1.9898e-41
80	0x00002f28	1.6916e-41
81	0x80003075	-1.7383e-41
82	0x800081ee	-4.661e-41
83	0x800022f6	-1.2542e-41
84	0x0000326f	1.8092e-41
85	0x8000281a	-1.4386e-41
86	0x00001579	7.703e-42
87	0x0000b1df	6.3808e-41
88	0x00004905	2.6194e-41
89	0x80004f55	-2.8459e-41
90	0x000035a6	1.9245e-41
91	0x800000e9	-3.27e-43
92	0x000091a7	5.225e-41
93	0x00003cc7	2.1803e-41
94	0x80003574	-1.9175e-41
95	0x80003053	-1.7335e-41
96	0x000062e2	3.5472e-41
97	0x00001c6b	1.0194e-41
98	0x0000abb2	6.1593e-41
99	0x80009a75	-5.5409e-41
100	0x1586a726	5.438588e-26
101	0xa60832aa	-4.725314e-16
102	0x94f2d28b	-2.45188e-26
103	0x80004c05	-2.727e-41
104	0x8000ab60	-6.1478e-41
105	0x8000a705	-5.9915e-41
106	0x803af3e9	-5.413957e-39
107	0x8b2c9ea1	-3.3245334e-32
108	0xa1a1a49c	-1.0953356e-18
109	0xa0930b94	-2.491043e-19
110	0x00dc4613	2.0228947e-38
111	0x8000753e	-4.2059e-41
112	0x80009c3d	-5.6048e-41
113	0x8000485e	-2.596e-41
114	0x80002695	-1.384e-41
115	0x800041f2	-2.3657e-41
116	0x86a9d98b	-6.3890385e-35
117	0x8e83be01	-3.247696e-30
118	0x92d8af4a	-1.3674729e-27
119	0x8fe1382b	-2.2208348e-29
120	0x87f1d3d5	-3.6386153e-34
121	0x84cc0954	-4.7968736e-36
122	0x869b2fb3	-5.837461e-35
123	0x84907238	-3.395913e-36
124	0xa4cd1e47	-8.895587e-17
125	0xab67f929	-8.2413465e-13
126	0xa38487ba	-1.4368951e-17
127	0xa49c2a1c	-6.772555e-17
128	0xaa9c1150	-2.772318e-13
129	0xab42e19c	-6.923574e-13
130	0xab148adb	-5.2772863e-13
131	0xaa15d4b4	-1.3307655e-13
132	0xa8ce71b1	-2.29199e-14
133	0xa952db95	-4.6819824e-14
134	0xa9e4fa4d	-1.0168654e-13
135	0xa299b216	-4.165929e-18
136	0xa753ae7a	-2.9376716e-15
137	0xab82ed82	-9.302977e-13
138	0xab711aea	-8.565775e-13
139	0xaab0f182	-3.143146e-13
140	0x2aa9986b	3.0126192e-13
141	0xaa69a625	-2.07522e-13
142	0xa6cbfb52	-1.4154075e-15
143	0xa57f01bc	-2.2118312e-16
144	0xab76ee6d	-8.772764e-13
145	0xac4bcd9f	-2.8962178e-12
146	0xacc3080b	-5.5431263e-12
147	0xad2752a3	-9.5112e-12
148	0xacc740ef	-5.6631293e-12
149	0xaabbccdb	-3.336002e-13
150	0xab98e3d5	-1.0863486e-12
151	0xad0315d8	-7.451338e-12
152	0xad1559fe	-8.489652e-12
153	0xad2501f0	-9.379594e-12
154	0xacaaef5c	-4.858265e-12
155	0xa995f2e9	-6.6590674e-14
156	0xab2632e3	-5.9045667e-13
157	0xabbd9656	-1.3470984e-12
158	0xaa92e1e2	-2.6091548e-13
159	0xacd9b457	-6.1875327e-12
160	0xac909373	-4.1090963e-12
161	0xab893569	-9.74926e-13
162	0xa996916b	-6.686564e-14
163	0xa735eba4	-2.5246537e-15
164	0x9e851612	-1.4091051e-20
165	0xa952aa4c	-4.6777076e-14
166	0xaae5ee88	-4.0844086e-13
167	0xabaf8b6b	-1.2473194e-12
168	0xab4891b0	-7.1256456e-13
169	0xaaec6bbb	-4.1996774e-13
170	0xa9ee9e81	-1.0596819e-13
171	0xa1bd4504	-1.2825406e-18
172	0xa1ad5108	-1.1744385e-18
173	0xa2ed05f5	-6.4245286e-18
174	0xaac0a9fe	-3.4224007e-13
175	0xad08a6cf	-7.767744e-12
176	0xad1adf6a	-8.803494e-12
177	0xad8f494f	-1.6289773e-11
178	0xaca7f3f3	-4.7735093e-12
179	0xaca58af4	-4.705009e-12
180	0xaba705d6	-1.1867683e-12
181	0xab76c560	-8.767067e-13
182	0xac68f986	-3.3107696e-12
183	0xae162a6a	-3.4143723e-11
184	0xafad9881	-3.1576877e-10
185	0xb1015307	-1.8819166e-09
186	0xb1d6b168	-6.2483885e-09
187	0xb213e6d2	-8.609009e-09
188	0xb275a955	-1.4299379e-08
189	0xb2418d3b	-1.1266191e-08
190	0xb2569678	-1.2490652e-08
191	0xb1f1073e	-7.0148465e-09
192	0xb1ac6c95	-5.018203e-09
193	0xb1103ae0	-2.0988224e-09
194	0xb00b289d	-5.062562e-10
195	0xafdc6e1c	-4.0096004e-10
196	0xafd57e5d	-3.883426e-10
197	0xaf92b7b2	-2.668777e-10
198	0xaeb78160	-8.344858e-11
199	0xaf0817c3	-1.237757e-10
200	0x8000438e	-2.4234e-41
201	0x80003cb9	-2.1783e-41
202	0x00003002	1.7222e-41
203	0x0000461c	2.515e-41
204	0x8000356f	-1.9168e-41
205	0x80009b79	-5.5773e-41
206	0x80003f70	-2.2757e-41
207	0x00007f88	4.575e-41
208	0x0000aa4f	6.1095e-41
209	0x00000c82	4.487e-42
210	0x80009a7b	-5.5417e-41
211	0x00009abc	5.5508e-41
212	0x00003ba1	2.1391e-41
213	0x0000a5a5	5.9422e-41
214	0x80007201	-4.0897e-41
215	0x8000b0a3	-6.3365e-41
216	0x80008814	-4.8816e-41
217	0x00000c0d	4.323e-42
218	0x8000625c	-3.5285e-41
219	0x800053dd	-3.0084e-41
220	0x80001e7a	-1.0933e-41
221	0x80001993	-9.174e-42
222	0x80009cb1	-5.621e-41
223	0x0000980a	5.4541e-41
224	0x800073d4	-4.1551e-41
225	0xa7b11859	-4.9153767e-15
226	0xa736bd62	-2.5360238e-15
227	0x8c2e03ff	-1.3405675e-31
228	0x8f66167c	-1.1344206e-29
229	0x95e11c7d	-9.092172e-26
230	0x99aa7f9d	-1.762913e-23
231	0xa1d9e187	-1.4764189e-18
232	0xaa0181dd	-1.1502557e-13
233	0xa99dafe8	-7.0027155e-14
234	0x208e2f72	2.4087132e-19
235	0x9dfc04fa	-6.670899e-21
236	0x9e1a2e00	-8.162205e-21
237	0xa0991d3e	-2.593856e-19
238	0x9b5af275	-1.811088e-22
239	0x9bc5deb6	-3.273484e-22
240	0xa14ed366	-7.00753e-19
241	0xa912de1f	-3.261117e-14
242	0xa8db2371	-2.4329254e-14
243	0x93d68951	-5.41566e-27
244	0x936fff28	-3.0291843e-27
245	0x96a1893c	-2.609756e-25
246	0x96572a25	-1.738086e-25
247	0x9908c02d	-7.069845e-24
248	0xa7883477	-3.7804465e-15
249	0xa79126dc	-4.0287716e-15
250	0x80007071	-4.0336e-41
251	0x800064d3	-3.6169e-41
252	0x000061e0	3.5111e-41
253	0x80004f40	-2.843e-41
254	0x8000a1db	-5.8063e-41
255	0x00001f4a	1.1224e-41

module.conv3.convolution.bias f4 [32]
0	0xad821a22	-1.4790894e-11
1	0xbc0f2e6e	-0.008739097
2	0x3d28263e	0.041052096
3	0x3c6ac5fd	0.014329431
4	0x3cbf062c	0.023318373
5	0x803b7efc	-5.463848e-39
6	0x3d703b13	0.058650088
7	0xbd04d2f7	-0.032427754
8	0xbbb7945f	-0.005602404
9	0x3cd244fd	0.025667662
10	0xbd5bc2dc	-0.05365263
11	0xbac434b4	-0.001496932
12	0x3d86204b	0.06549128
13	0x3c6dd33f	0.014515697
14	0x3d1ad260	0.037798285
15	0x3d890079	0.06689543
16	0xbc831ba7	-0.016004397
17	0x3e15a722	0.14614537
18	0x3e3432ae	0.17597458
19	0xb91f611d	-0.00015199599
20	0xbc32f15b	-0.010921801
21	0x3ded4b4e	0.11586629
22	0xab4bd1d6	-7.2411294e-13
23	0x3ca4efb2	0.020133827
24	0x3c4050ce	0.011738015
25	0xbc78f667	-0.015195466
26	0x3d8d1f04	0.068906814
27	0xbc2f2080	-0.010688901
28	0xbcbfd99d	-0.023419196
29	0xbb3c3ba1	-0.0028722065
30	0xbc1187d0	-0.008882478
31	0x363a8715	2.7794788e-06

module.conv4.convolution.weight f4 [32, 32, 25]
0	0xb227235f	-9.728722e-09
1	0x2f09a4fb	1.251869e-10
2	0xad7e1830	-1.4443599e-11
3	0xaf98b8c4	-2.7779923e-10
4	0x33d8325e	1.00674455e-07
5	0x333ebff3	4.44124e-08
6	0x2c945824	4.2161986e-12
7	0x2e9950b7	6.971972e-11
8	0x33433dea	4.5458286e-08
9	0xb51cb98f	-5.838455e-07
10	0xb4c6439f	-3.6929575e-07
11	0xad71c857	-1.3743748e-11
12	0x2835671e	1.0069878e-14
13	0xb7dc0cad	-2.6231946e-05
14	0xb70a684a	-8.249723e-06
15	0xb5fec2c7	-1.8981162e-06
16	0xb70d4c75	-8.422056e-06
17	0xabb1a04a	-1.2621096e-12
18	0xababd3ac	-1.2209032e-12
19	0xabda77fa	-1.5523132e-12
20	0x3037f184	6.6918227e-10
21	0x334567f4	4.596218e-08
22	0x2faddc9f	3.1625277e-10
23	0xb1ab5f13	-4.9875637e-09
24	0xb8495ccd	-4.8008562e-05
25	0xbd44f3e6	-0.048084162
26	0x3e19cd6c	0.15019768
27	0x3cecb8f0	0.028896779
28	0x3d399da8	0.04531637
29	0x3d9cb212	0.07651152
30	0xbd30ceaf	-0.04316586
31	0x3d2960e3	0.041352164
32	0xbdac54c1	-0.08414603
33	0xbd867474	-0.065651804
34	0xbe0706db	-0.13186209
35	0xbcb0fe5e	-0.021605667
36	0xbd8e380d	-0.069442846
37	0xbe6d9e26	-0.2320486
38	0xbdc41378	-0.09574026
39	0xbe2ffb64	-0.17185742
40	0xbe0c1f1f	-0.13683747
41	0xbdb71a23	-0.08940532
42	0x3d25f39d	0.04051553
43	0x3d905c66	0.070488736
44	0x3e2f65af	0.17128633
45	0xbe036733	-0.12832336
46	0x3b525735	0.0032095436
47	0xbca8c3cd	-0.020601178
48	0xbe013300	-0.12617111
49	0xbdd86880	-0.10566807
50	0xbe0f498d	-0.13992901
51	0x3d325e6d	0.043547083
52	0x3e6e5f42	0.23278525
53	0x3e5014c8	0.20320427
54	0x3ca25583	0.019816166
55	0xbdb4972f	-0.088178985
56	0xbe515154	-0.2044118
57	0x3d9cec4c	0.076622576
58	0x3ea84a7a	0.3286932
59	0x3e8869f7	0.26643345
60	0x3e46822a	0.19385591
61	0x3d8de18b	0.069277845
62	0x3d781199	0.060563657
63	0xbda73559	-0.08164472
64	0xbe953096	-0.2913863
65	0xbe36c26d	-0.17847605
66	0xbded2681	-0.1157961
67	0x3be6a561	0.0070387577
68	0xbe146afc	-0.14493936
69	0xbe3683da	-0.17823735
70	0xbde9eb1f	-0.11421799
71	0xbd2e091d	-0.04248916
72	0xbba44598	-0.005013179
73	0x3d1379be	0.036004774
74	0x3e02140b	0.12702958
75	0xbd198e5c	-0.03748928
76	0x3d046abf	0.032328364
77	0x3d7098f6	0.058739625
78	0xbcc3b6b1	-0.023890825
79	0xbd264771	-0.040595476
80	0xbda3cead	-0.07998405
81	0xbdbae0f4	-0.09124938
82	0x3dcdebb3	0.10054722
83	0x3e64fad5	0.2236131
84	0x3e56b3bb	0.20966999
85	0x3d96b159	0.07358045
86	0x3dbbf89c	0.09178278
87	0xbc5f7dee	-0.013640864
88	0xbb0f7340	-0.0021888763
89	0xbd348389	-0.044070754
90	0xbd7ed6cf	-0.062216576
91	0x3c21ae94	0.009868283
92	0x3e4c963e	0.19979188
93	0xbd2eda95	-0.042688925
94	0xbdf03eec	-0.117307514
95	0xbdad7caa	-0.084710434
96	0xbcee370d	-0.029078985
97	0xbdc44f07	-0.09585386
98	0xbcc8cdaf	-0.02451214
99	0xbdafedaa	-0.08590253
100	0x3c7eae33	0.015544462
101	0xbd775810	-0.060386717
102	0xbd9c8665	-0.07642821
103	0x3bd1a2fe	0.006397604
104	0xbcd3e6f1	-0.025866957
105	0x3bc2cea6	0.0059450446
106	0x3e481f26	0.19543132
107	0x370b1f4f	8.292335e-06
108	0xbc8c7c0a	-0.01714899
109	0xbd408115	-0.046998102
110	0x3d357619	0.04430208
111	0xbcd7f9ec	-0.02636429
112	0xbda1b3c2	-0.07895614
113	0xbd00759f	-0.031362172
114	0xbd05ca9a	-0.03266392
115	0xbc52132d	-0.012821955
116	0x3de9be2b	0.11413225
117	0xbd8842e0	-0.066533804
118	0xbda83935	-0.082140364
119	0xbcf6315d	-0.030052835
120	0x3d8970e4	0.06710985
121	0xbd36fa59	-0.044672344
122	0xbd32f406	-0.04368975
123	0xbb94cbeb	-0.0045409105
124	0xbda6113d	-0.08108757
125	0x09b8595e	4.438043e-33
126	0x09a2b7ba	3.9172857e-33
127	0x050038d6	6.02897e-36
128	0x00b8193b	1.6906782e-38
129	0x03239699	4.8074272e-37
130	0x001b0521	2.481398e-39
131	0x00097647	8.6895e-40
132	0x80008b03	-4.9868e-41
133	0x80009102	-5.2019e-41
134	0x0000a5d5	5.949e-41
135	0x00007181	4.0718e-41
136	0x851fcf0e	-7.514174e-36
137	0x8284d17f	-1.9515902e-37
138	0x023e8b52	1.3998978e-37
139	0x02d8582b	3.1788953e-37
140	0x821b4f9e	-1.141045e-37
141	0x8159b813	-3.9988672e-38
142	0x0262e4c0	1.6669506e-37
143	0x0281a7aa	1.905108e-37
144	0x802d6b92	-4.171186e-39
145	0x00003beb	2.1495e-41
146	0x0000141d	7.215e-42
147	0x80002f8b	-1.7055e-41
148	0x800018e9	-8.936e-42
149	0x01c87f0b	7.3650695e-38
150	0x3daff4b3	0.085915945
151	0x3e118156	0.14209494
152	0x3e30dcbf	0.17271708
153	0xbc856ed3	-0.016288197
154	0x3d383bf6	0.04497906
155	0x3d8ae692	0.06782259
156	0xbda5fd8f	-0.08105003
157	0xbcbd5f06	-0.0231166
158	0xbe156e0f	-0.14592765
159	0xbe2b9cbb	-0.16759007
160	0xbe3a6ede	-0.18206355
161	0x3d67410f	0.05645853
162	0x3e4ecc6d	0.2019517
163	0x3e3a493c	0.18191999
164	0xbd87bccc	-0.06627807
165	0xbe3d8f09	-0.18511595
166	0xbe83ac1e	-0.25717252
167	0xbe7abe43	-0.24486642
168	0xbe3fe183	-0.1873837
169	0xbd97c0e0	-0.07409835
170	0xbcc78c40	-0.024358869
171	0xbd2554a8	-0.040363938
172	0xbdaf3b50	-0.08556235
173	0xbdc3cb5e	-0.095602736
174	0x3b3f1eaa	0.0029162564
175	0x3cfb46f1	0.030673476
176	0x3cc1be64	0.023650356
177	0x3c9bc156	0.019013088
178	0x3c251e74	0.010078061
179	0xb8a1cf99	-7.715746e-05
180	0xbc1c7c49	-0.009551116
181	0x394f4d16	0.00019769775
182	0x3be9f2ad	0.007139525
183	0x3cab7819	0.02093129
184	0x3d14dfe1	0.03634632
185	0x3d1d1134	0.038346484
186	0x3d372cc7	0.044720437
187	0x3d37339d	0.044726957
188	0x3d08f25e	0.033434264
189	0x3bb2eb07	0.0054601463
190	0xbaea2404	-0.0017863517
191	0x3b294f18	0.0025834497
192	0x3cac027f	0.020997284
193	0x3d04bb90	0.032405436
194	0x3d188cda	0.0372437
195	0x3d1432c4	0.036181226
196	0x3d2b269f	0.04178488
197	0x3d303981	0.04302359
198	0x3d1bf6ee	0.038077287
199	0x3c2bfe8f	0.010497703
200	0xbc03f711	-0.008054511
201	0xbbd47366	-0.006483483
202	0xbb178ee9	-0.0023125953
203	0xb8e061f9	-0.00010699401
204	0xbbb37926	-0.0054770885
205	0xbc23b973	-0.009992945
206	0xbc8d5dd1	-0.01725665
207	0xbcd2240e	-0.025651958
208	0xbd168d3e	-0.036755793
209	0xbd1ecd0d	-0.03876977
210	0xbce66bd1	-0.028127583
211	0xbcdacee3	-0.02670998
212	0xbba61c25	-0.005069273
213	0xbc17494d	-0.009233785
214	0xbbf0595d	-0.0073348717
215	0x3a79c813	0.00095284096
216	0x3bb0062e	0.0053718304
217	0x3a94dc89	0.0011357229
218	0xbc706e31	-0.014674709
219	0xbcde140f	-0.027109174
220	0xbd114ed7	-0.03547558
221	0xbd1222aa	-0.03567759
222	0xbd0c9653	-0.034323048
223	0xbc9263ea	-0.017869908
224	0xbc439f50	-0.0119398385
225	0x3dfb9e4d	0.12286053
226	0x3ad27394	0.0016056173
227	0xbcd2bb70	-0.025724143
228	0x3bb26d04	0.0054451246
229	0xbd7ccd43	-0.06171919
230	0x3c912bc4	0.017721064
231	0xbd398d5d	-0.04530083
232	0xbb58df00	-0.0033091903
233	0x3d03b3a8	0.032153755
234	0xbe9e09e6	-0.30866927
235	0xbe558c43	-0.20854287
236	0xbe5e9771	-0.21737458
237	0x3dc14ec3	0.09438851
238	0x3e58f84d	0.21188469
239	0x3d4055d2	0.046956845
240	0xbca87f2b	-0.02056845
241	0xbd908e1a	-0.07058354
242	0x3ca106a3	0.019656485
243	0xbd5d1365	-0.053973574
244	0xbd35a534	-0.044347003
245	0xbdf4e246	-0.11957221
246	0x3d741aac	0.05959575
247	0xbd3c1e15	-0.045927126
248	0xbd80c0ea	-0.062867954
249	0xbd83760c	-0.06419
250	0xbd603907	-0.054741886
251	0xbe2e8724	-0.1704374
252	0xbe5a3cce	-0.21312258
253	0xbe2dfc9e	-0.16990897
254	0xbdcb8a39	-0.09938473
255	0x3e81ae11	0.25328115

module.conv4.convolution.bias f4 [32]
0	0x3beb6ab7	0.0071843523
1	0x3b9658c3	0.004588218
2	0xbc82eff9	-0.015983569
3	0x39f0dfea	0.00045943196
4	0x3da42f89	0.08016879
5	0xbd050905	-0.032479305
6	0xbc863fba	-0.016387809
7	0xbd2a7e49	-0.04162434
8	0x3c16cd6d	0.009204251
9	0x3d9fb03a	0.077972844
10	0x3c442fa0	0.011974245
11	0xbd6b43db	-0.05743776
12	0xbc5b6100	-0.013389826
13	0x3d11d025	0.035598893
14	0xba1b9e55	-0.0005936374
15	0xbc9303d2	-0.017946158
16	0xbdab3ae0	-0.08360839
17	0x3daa7a95	0.08324162
18	0xbccdd5ce	-0.025126364
19	0x3d7a4553	0.06110127
20	0xbd022dfa	-0.031782128
21	0x3bcb76fd	0.006209253
22	0x3cc8c13a	0.0245062
23	0x3cc1e9ad	0.023670996
24	0x3bb8e257	0.005642216
25	0xbd6b2095	-0.05740412
26	0x3d13938b	0.03602938
27	0xbca7729e	-0.020440396
28	0x3b48fc0d	0.0030667812
29	0xbda823b9	-0.082099386
30	0xbcb29c90	-0.02180317
31	0x3d384666	0.044989012

module.fc.linear.weight f4 [16, 2048]
0	0x3dbb711c	0.09152433
1	0xbdd2cdcb	-0.10293158
2	0x37502284	1.2405802e-05
3	0xbdf088a3	-0.117448114
4	0xbd4230c4	-0.047409788
5	0xbdb35eb7	-0.087583
6	0xbd57fd36	-0.052731715
7	0x3e90c8b6	0.2827813
8	0x3dacbc0d	0.08434305
9	0x3d4d879f	0.050178166
10	0xbd2a2cb6	-0.041546546
11	0xbd8ec44b	-0.06971034
12	0xbcaad277	-0.02085231
13	0xbe1d29c3	-0.15347962
14	0x3dbcafcb	0.09213217
15	0xb99a351c	-0.00029412739
16	0x3d848391	0.06470407
17	0x3d20ba98	0.03924045
18	0xbd2afc5b	-0.04174457
19	0xbe33dbbf	-0.17564295
20	0xbcbca6d9	-0.023028778
21	0x3d396918	0.04526624
22	0xbcc14b49	-0.02359547
23	0x3c896a85	0.016774425
24	0x3bd55030	0.0065098032
25	0x3e44dc4e	0.19224665
26	0x3e7fcb38	0.24979866
27	0x3c665583	0.0140584735
28	0xbd4d7f72	-0.05017037
29	0xbc4390a7	-0.011936343
30	0xbc41b0e2	-0.011821957
31	0xbea0de49	-0.3141959
32	0xbd923c52	-0.071404114
33	0x3e02038c	0.12696666
34	0x3ba4b215	0.005026112
35	0xbdd832dc	-0.10556576
36	0xbe0c0aaf	-0.1367595
37	0x3ddc3624	0.10752514
38	0xbe1362fa	-0.14393225
39	0xbdf5ee0a	-0.12008293
40	0xbd8e3442	-0.06943561
41	0xbcfa26e4	-0.030536123
42	0xbd9fdb34	-0.078054816
43	0x3ead15ee	0.33805794
44	0x3dc4b203	0.096042655
45	0x3e1eda6f	0.15513013
46	0x3d744f33	0.059645843
47	0xbcec032f	-0.028810112
48	0x3c691f26	0.014228618
49	0xbe300590	-0.17189622
50	0xbd8f72ab	-0.07004293
51	0x3d297d6b	0.041379374
52	0x3ab35998	0.0013683317
53	0x3c86cf3a	0.016456235
54	0x3d1a041c	0.037601575
55	0x3d897db4	0.06713429
56	0x3db86fa9	0.090056725
57	0x3dd81629	0.10551102
58	0xbb809b0c	-0.003924733
59	0x3d7647bb	0.060127
60	0xbc856f54	-0.016288437
61	0x3c7bc096	0.01536574
62	0x3dd0de6e	0.10198675
63	0xbca8c3b6	-0.020601135
64	0x3c3a5ed2	0.011375146
65	0xbdc9bc7c	-0.09850404
66	0x3d1ec942	0.038766153
67	0xbdfa1a80	-0.12212086
68	0x3e242337	0.16029058
69	0x3df8f4d6	0.12156074
70	0xbd9408ab	-0.07228216
71	0x3d031925	0.0320064
72	0x3d29993f	0.041405912
73	0x3e225bd4	0.15855342
74	0x3e200bff	0.15629576
75	0x3dccb6d0	0.09995806
76	0xbd847acd	-0.06468735
77	0xbe1741c0	-0.14771175
78	0x3d5839ca	0.052789487
79	0xbe2a15a2	-0.16609815
80	0xbe64787a	-0.22311583
81	0xbe444728	-0.19167769
82	0x3c92f0e5	0.017937133
83	0xbe4bec75	-0.1991442
84	0x3e30ba76	0.17258629
85	0x3e520b78	0.20512187
86	0xbc9432d7	-0.018090649
87	0x3e88b774	0.26702464
88	0x3e54732e	0.20747063
89	0x3db46075	0.0880746
90	0x3d633ab3	0.0554759
91	0xbd9089d9	-0.07057542
92	0x3dbb9375	0.091589846
93	0x3ca83645	0.02053369
94	0xbe273efe	-0.16332623
95	0x3dab9e2d	0.08379779
96	0x3e1d06b6	0.15334591
97	0xbe029524	-0.12752205
98	0xbda045cb	-0.07825812
99	0x3e029656	0.12752661
100	0x3df4b6b9	0.11948914
101	0x3def3717	0.116804294
102	0x3e82ee1a	0.25572282
103	0x3d64766e	0.055777006
104	0xbe0e2596	-0.13881525
105	0xbd5ca0d6	-0.053864323
106	0xbe189c3b	-0.14903347
107	0xbc9c72d5	-0.019097725
108	0xbee4a47a	-0.44656736
109	0x3a533d85	0.00080581784
110	0xbd763795	-0.0601116
111	0xbeb212bd	-0.3477992
112	0xbd9ab19f	-0.0755341
113	0xbe09e277	-0.13465296
114	0x3d5afd00	0.053463936
115	0xbe62103e	-0.22076508
116	0xbdeb5839	-0.114914365
117	0xbca5ddc7	-0.020247353
118	0xbcea3981	-0.028591873
119	0x3c6792bc	0.014134105
120	0x3a83b61a	0.0010048777
121	0x3e0912f5	0.13386138
122	0x3c5a592e	0.013326926
123	0x3db56227	0.08856612
124	0x3e0db550	0.13838696
125	0x3c0ff060	0.008785337
126	0x3bf442d1	0.007454254
127	0x3d26167d	0.04054879
128	0x318c39b7	4.0810977e-09
129	0x3cbcd42f	0.023050396
130	0xbe00d44f	-0.1258099
131	0xbd3cf3da	-0.046130992
132	0xbbad821d	-0.0052950517
133	0x3c90f5f1	0.017695399
134	0xbd378973	-0.044808816
135	0x3b733364	0.0037109489
136	0xbb202c89	-0.0024440608
137	0x3c5926e7	0.013253904
138	0xbe402b5d	-0.18766542
139	0x3c4802d7	0.012207708
140	0x3e32aad5	0.1744798
141	0x3de2497c	0.11049172
142	0x3dccd182	0.10000898
143	0x3ddf3f72	0.10900773
144	0xbe88b363	-0.2669936
145	0xbdab4e5e	-0.08364557
146	0xbe223e7e	-0.15844151
147	0xb8c4846e	-9.370675e-05
148	0xbcb39f63	-0.021926587
149	0x3ba6be8b	0.0050886325
150	0xbd041301	-0.032244686
151	0x3dec37f7	0.11534112
152	0x3d6d12b4	0.057879165
153	0x3cb5facf	0.022214321
154	0x3ea91b40	0.33028603
155	0xbc5c2476	-0.013436427
156	0x3d5b4a65	0.053537745
157	0x3b416f40	0.0029515773
158	0x3e0a1831	0.13485791
159	0x3dbbbe9e	0.09167217
160	0xbbc409a1	-0.005982593
161	0xbbbeaef1	-0.0058191945
162	0x3d4379f4	0.047723725
163	0xbe0abecf	-0.1354935
164	0xbd7f1f0e	-0.062285475
165	0xbcd893ac	-0.026437603
166	0x3d8109d5	0.063007034
167	0xbcf13679	-0.02944492
168	0xbcefe4ea	-0.02928396
169	0xbe019d77	-0.12657724
170	0x3dc5a78c	0.09651098
171	0x3d7908de	0.060799472
172	0x3dc48746	0.09596114
173	0x3d621ca3	0.05520309
174	0xbd86417d	-0.0655546
175	0x3d82dfdf	0.06390356
176	0x3c180248	0.009277888
177	0x3e08a9e8	0.13346064
178	0xbc917c0b	-0.017759344
179	0xbd3e169f	-0.046408292
180	0x3cc40dfa	0.023932446
181	0xbe2f4ca4	-0.1711908
182	0xbde9cb81	-0.114157684
183	0xbdc2b8a8	-0.09507877
184	0x3c38da9e	0.011282591
185	0xbd250a98	-0.040293306
186	0xbca02ccf	-0.019552616
187	0xbb0df03e	-0.0021658088
188	0xbcda8dab	-0.02667888
189	0xbcd17985	-0.02557064
190	0xbdbd9915	-0.09257714
191	0x3c42bc30	0.011885688
192	0x2b0e458b	5.0545044e-13
193	0xbe4a76bb	-0.19771855
194	0x17cae52a	1.3111793e-24
195	0x3db10058	0.08642644
196	0x3e00331a	0.12519494
197	0x3d36a256	0.04458841
198	0x3b529a3d	0.003213539
199	0xbd4054dd	-0.046955932
200	0xbced0c49	-0.028936522
201	0xbd3196d3	-0.043356728
202	0xbda1834a	-0.078863695
203	0x3c98c90b	0.018650552
204	0xbcda18a0	-0.02662307
205	0x3d075f1d	0.03304969
206	0x3d4772a5	0.048693318
207	0xbd9fd572	-0.07804383
208	0xbdd0fed5	-0.10204855
209	0x3d48554e	0.048909478
210	0xbd5a04f8	-0.053227395
211	0xbd7b367b	-0.061331253
212	0x3db64927	0.089006715
213	0xbd178477	-0.036991563
214	0x3bacf135	0.0052777776
215	0xbcaa1022	-0.020759646
216	0xbd2ae884	-0.04172565
217	0x3c84f339	0.016229259
218	0xbd523e84	-0.05132915
219	0x3d0352bd	0.032061327
220	0x3aaf35c1	0.001336746
221	0x3e244b27	0.16044293
222	0x3dc6c468	0.0970543
223	0xbd9f7c08	-0.07787329
224	0xbe0a7cbb	-0.13524143
225	0xbc8cebb3	-0.017202234
226	0x3c97fecf	0.01855412
227	0xbc85c9a7	-0.016331507
228	0xbe0bbc73	-0.13646106
229	0x3c037e1f	0.008025675
230	0xbdb4402b	-0.088013016
231	0xbe4a1e71	-0.19738175
232	0xbcd7eca7	-0.026357962
233	0xbc263bc5	-0.010146086
234	0x3b95dad8	0.0045732073
235	0xbd27dcb4	-0.040981963
236	0x3d1b29a4	0.03788151
237	0x3cd61c3f	0.026136516
238	0xbdf3bdc2	-0.11901428
239	0x3dc63f66	0.09680061
240	0xbdcd1019	-0.10012836
241	0x3da7b05b	0.08187934
242	0xbce345da	-0.027743269
243	0x3d62b8c1	0.055351976
244	0x3c879cdc	0.016554289
245	0xbd36c421	-0.044620637
246	0xbd3c8ac2	-0.046030767
247	0xbe0aae00	-0.13542938
248	0xbd3704b6	-0.044682227
249	0xbe20dbf3	-0.15708904
250	0x3d891f44	0.066954166
251	0x3d483b0e	0.048884444
252	0x3dba395d	0.090929724
253	0x3decbce9	0.11559469
254	0x3e40d533	0.18831329
255	0x3d46ef67	0.048568156

module.fc.linear.bias f4 [16]
0	0x3d3a4080	0.04547167
1	0x3d4fc536	0.050725184
2	0x3d64f5a3	0.05589832
3	0xb95889ba	-0.00020650672
4	0x9e1a3e94	-8.165633e-21
5	0xbca4948f	-0.02009037
6	0x3ca3948c	0.019968294
7	0x98a0d7cc	-4.157693e-24
8	0x3d52d56f	0.051473077
9	0x3d1b3d58	0.0379003
10	0x3da6a4d1	0.08136905
11	0x3d993551	0.074808724
12	0x800065f6	-3.6577e-41
13	0x3cdaaa11	0.026692422
14	0x3c9bca12	0.019017253
15	0x3c4711ee	0.012150271

module.out.linear.weight f4 [1, 16]
0	0xbe2391af	-0.15973543
1	0xbe449951	-0.1919911
2	0x3de916c5	0.11381296
3	0xbb848b5d	-0.0040449337
4	0x3b6b368f	0.0035890674
5	0x3dd835e3	0.10557153
6	0xbe0ee19a	-0.13953248
7	0x382aba68	4.0704763e-05
8	0xbe38fcd1	-0.18065192
9	0xbe3e29d4	-0.18570644
10	0xbe3d3dc2	-0.1848059
11	0x3e129502	0.14314654
12	0xbd0cdf58	-0.034392685
13	0x3e02d70b	0.12777345
14	0xbe01cd22	-0.12675908
15	0x3ddebb0f	0.10875522
