deepSNIaID/trained_models/dm15.pth (torch_old, 933082 bytes, 11 tensors)

module.conv1.convolution.weight f4 [16, 1, 25]
000000 dc 59 15 3e e2 61 70 3e 8f ba 2c 3e 6f a3 e9 3c
       0.1458506 0.2347484 0.16868041 0.028520314
000010 1b 83 90 3d b4 24 d8 3d 32 bb 93 3d 98 3e d4 3c
       0.070562564 0.105538756 0.07213439 0.025908753
000020 ff 21 ec 3d 51 76 43 3d ae 4a 9d bc 2f 00 f8 bd
       0.11529922 0.047720257 -0.01920065 -0.1210941
000030 ea 30 2f be 63 54 64 3d 00 a2 7a bd 65 c6 16 be
       -0.17108503 0.05574454 -0.06118965 -0.14724119
000040 45 48 32 be 52 4d 4a be 9e 89 55 bd 26 e1 33 be
       -0.17410381 -0.19756058 -0.052133195 -0.17566356
000050 80 85 53 be 77 82 81 3d 05 0f 6a 3d 1b 3e f9 bb
       -0.20656395 0.06323712 0.05714323 -0.0076062805
000060 cd e2 57 bd 61 1d 60 3d 71 31 12 be 3b 2d ca 3c
       -0.05270653 0.054715518 -0.14276673 0.02467977
000070 f3 26 0e be 06 9e 76 bd 96 da 79 3d fd cc 8f bd
       -0.13882045 -0.060209297 0.060999475 -0.0702152
000080 6a dc b0 3d 46 b2 d3 3d ae e8 f6 bc 7c a9 6f ba
       0.08635791 0.10336737 -0.030140247 -0.00091423816
000090 c5 eb 3c bb ef ea 00 bd 9f ca 11 be 27 15 1e 3e
       -0.0028827053 -0.03147405 -0.1423745 0.15437756
0000a0 9a 82 11 3c d7 56 50 bd 2f 46 af 3d 06 56 91 3d
       0.0088812355 -0.050864067 0.08558308 0.07096486
0000b0 57 cf 11 be e8 a6 91 3d 72 27 7a bc c7 b3 e2 bd
       -0.1423925 0.07111913 -0.015268194 -0.11069446
0000c0 50 7a ee bd 73 5a 77 3d eb 69 be bd 80 e4 b8 bc
       -0.11644423 0.060388993 -0.09297546 -0.022569895
0000d0 67 79 06 be 71 76 83 bd 88 2e 07 be e5 f0 0b be
       -0.13132249 -0.06419075 -0.13201344 -0.13666113
0000e0 07 33 1b be bf 5c b7 bd b7 9c 84 be 2e f3 ad 3d
       -0.15156184 -0.08953237 -0.25900814 0.084936485
0000f0 5d 10 56 bd 54 92 fc bd 27 0c 5f 3e ba 33 c7 3c
       -0.0522617 -0.123325974 0.2178198 0.024316657
000100 53 5c 44 3d 5b 3f 04 3e 9d a8 2f 3e 26 a5 5b 3d
       0.04793961 0.12914793 0.17154165 0.053624295
000110 69 0c 1e 3e 1e 99 1d 3e 20 48 64 3d 29 92 1d 3d
       0.15434422 0.15390441 0.055732846 0.038469467
000120 e3 28 60 bd 68 12 f3 3d 76 51 7b 3c fc 98 9c bd
       -0.054726493 0.11868745 0.015339246 -0.07646367
000130 cf 03 af bd b2 27 db 3d a6 50 24 3e 85 92 59 3d
       -0.08545648 0.10700931 0.1604639 0.053118248
000140 cf f1 81 be 8e d3 d2 bd 51 e7 64 3c 78 64 80 bd
       -0.25379798 -0.10294257 0.013971166 -0.06269163
000150 cb e6 2f 3d b5 5b 75 bd fb b1 07 3d 78 12 d2 bd
       0.04294471 -0.05990191 0.03312872 -0.10257429
000160 6a 51 8c bd 9a 0d b3 3d df 51 2a bc 2f be 04 3d
       -0.06851466 0.08742829 -0.010395496 0.032407936
000170 53 c9 ee bc cb c3 0b 3e 1f e9 0e 3e 16 f7 26 be
       -0.029148733 0.13648908 0.13956116 -0.16305193
000180 50 68 e2 bc dd 89 d1 bc b4 6c 20 bd fb ab 13 be
       -0.02763763 -0.025578434 -0.039166167 -0.14421074
000190 49 d4 a9 3d 2f dc 17 bd d1 33 a5 3d 04 00 ba bc
       0.08292443 -0.037075218 0.08066524 -0.022705086
0001a0 02 5a f5 3c 77 25 4f bd d7 94 a0 3c 35 4e 78 bd
       0.029950146 -0.05057284 0.019602222 -0.06062146
0001b0 e4 ea 47 be ce 71 99 bd 83 b9 53 3d 73 52 cb bd
       -0.19523197 -0.0749241 0.05169059 -0.09927835
0001c0 83 36 1b be e6 d0 02 be 25 ee 4d be b8 58 1d bd
       -0.15157513 -0.12775001 -0.20110376 -0.038414687
0001d0 18 56 f5 bd 36 b5 be bd c2 69 bb bd cb 96 18 be
       -0.11979312 -0.09311907 -0.09151031 -0.14901273
0001e0 11 c6 82 3e ec 40 d6 3d 6f ee 06 3e 55 90 1e 3d
       0.25541738 0.104616016 0.13176893 0.038711865
0001f0 c8 e5 c3 3d ae 47 77 3d 31 b7 1d 3e 3a d9 3a bd
       0.09565312 0.060371093 0.15401913 -0.04561732
000200 94 7f 77 be e3 de 7e bc 26 db 81 bd cf 3d 83 bd
       -0.24169761 -0.01555607 -0.06340627 -0.064082734
000210 26 69 86 bd 84 6f 50 3d e4 e3 b3 bc 47 7c af 3d
       -0.06563024 0.0508876 -0.021959253 0.08568626
000220 fc 0b d2 bc 75 82 e7 3c e0 13 5f bc b6 bf e7 3d
       -0.02564048 0.028260449 -0.013615578 0.11315863
000230 56 36 41 3e 5e 85 95 3d 0f b0 80 3d 3e d1 13 be
       0.18868384 0.073008284 0.062835805 -0.14435288
000240 11 84 19 3d d3 e5 42 be d5 06 a0 3d d2 f2 79 be
       0.037479464 -0.19032983 0.07813803 -0.24409035
000250 a3 54 e3 3d f9 c6 d1 bd d2 ef 2b 3c 71 11 62 be
       0.111001275 -0.10243029 0.010494189 -0.22076966
000260 2a aa 3f 3d 44 8f 96 3d 29 aa ec 3d ee cd 12 be
       0.04679314 0.073515445 0.11555893 -0.14336368
000270 75 ab 03 3d f2 d5 fb 3b 9f a4 65 bd fa 45 f8 3d
       0.032145936 0.0076854164 -0.056065198 0.12122722
000280 8e 60 22 be bd ba f4 bd 47 1f 05 3e 4d 4a 84 bc
       -0.15857145 -0.1194968 0.13000213 -0.01614871
000290 72 87 97 bd e5 9b 6f bd ff ff 1d 3e ee 04 80 3d
       -0.07398881 -0.058498282 0.15429686 0.0625094
0002a0 7d 3f 2c be 64 e6 9b 3e 25 68 1c bc df b3 35 bd
       -0.16821094 0.30449212 -0.009546314 -0.04436099
0002b0 a1 56 6b bd 1c 2b ce bd 8a 6b 23 be 18 41 2a be
       -0.057455663 -0.10066816 -0.15958992 -0.16626394
0002c0 d2 bd 1a bd 13 8d 1b be b6 81 c9 bd 7e 5d 71 bd
       -0.037778683 -0.15190534 -0.098391935 -0.05892705
0002d0 b7 a7 36 bd 16 61 6e bd da 5e 60 bd 65 49 2e bc
       -0.04459354 -0.058198057 -0.054777957 -0.010637616
0002e0 f8 cf d2 ba c2 8d e8 bc 7c 39 1f bd 25 3c 81 bc
       -0.0016083708 -0.028387908 -0.03887318 -0.01577575
0002f0 9c 7e 37 bc 9f 9a 62 3c 1f 2d dd bd 47 43 e0 bc
       -0.01119962 0.01383081 -0.10799622 -0.02737583
000300 24 ec 84 bc a2 f4 c1 3a 86 e9 22 be b4 1e e4 bd
       -0.016225882 0.0014797638 -0.15909395 -0.11138669
000310 04 cc 25 be c7 e7 1b be 47 a7 7d be a5 ba da bc
       -0.16191107 -0.15225135 -0.24770842 -0.026700327
000320 30 54 24 be 2c 74 04 3e ac fa af 3d bd c0 35 3e
       -0.1604774 0.12934941 0.08592734 0.17749305
000330 fc 01 79 3d 67 e3 91 3d 6b 45 d1 3d d1 f0 7e 3d
       0.060792908 0.07123452 0.102183186 0.06224138
000340 2e 40 d7 3d de ec df 3c 59 48 03 3e c3 1d 71 3d
       0.10510288 0.027334627 0.12820567 0.058866274
000350 cb 4a e8 bd 3c f1 b6 3d 26 b3 5b 3e ee 27 30 bd
       -0.113423906 0.089327306 0.21455058 -0.04300683
000360 01 20 5d bd 4d 81 b3 bd de c3 a0 be 89 ee c6 3c
       -0.0539856 -0.087648965 -0.31399435 0.024283664
000370 7c 8e b6 bd b6 41 51 3d 28 a4 86 bd 7f db fd bd
       -0.089138955 0.051088057 -0.06574279 -0.12395381
000380 fb 61 6a be 6a d8 04 be c5 5c 29 bd c5 69 79 3b
       -0.22888939 -0.1297318 -0.041348238 0.0038057428
000390 da 7f 01 be 14 8b 4e 3e 39 71 c9 bc fa b0 3a bd
       -0.12646428 0.20170242 -0.024590122 -0.045578934
0003a0 1c 67 78 bc 83 65 28 bc b9 f6 1e bd 4c ec 34 3d
       -0.015161302 -0.0102781085 -0.03880951 0.044170663
0003b0 61 02 13 be 43 38 cd bd 4f 72 88 bc 94 1b 39 3c
       -0.14356376 -0.10020497 -0.01665607 0.011298079
0003c0 c8 bc 9c 3c f6 05 2d 3e 62 a6 33 3d ca d5 b5 3c
       0.019132987 0.16896805 0.043859847 0.02219667
0003d0 2b 55 9b bd 17 6b c8 3c 22 f4 68 bd 0d 80 bc 3c
       -0.07584604 0.024465127 -0.05687345 0.023010278
0003e0 9f ca 26 be b9 2e 72 bd cc 1a 35 3e 0a a7 9a 3c
       -0.16288231 -0.05912659 0.17686003 0.018878479
0003f0 30 12 df bd 5d 6a 3c bc 11 35 0f bd 40 e9 28 3d
       -0.10892141 -0.011499968 -0.034962717 0.04123807

module.conv1.convolution.bias f4 [16]
000000 a3 77 06 3e 12 19 e0 3d c5 d7 ab 3d dc b6 be 3d
       0.13131575 0.10942282 0.08390764 0.093122214
000010 83 29 11 3e 56 a3 00 3e 03 1e 15 3e b8 3c 62 3e
       0.14175992 0.12562308 0.1456223 0.22093475
000020 e8 96 5f bb 17 62 e7 3d e8 dc c0 3d fa 5a 54 3e
       -0.0034117047 0.11298006 0.094171345 0.2073783
000030 29 f5 ee 3d df 67 49 3e 1b a4 d8 3d 4f 86 1a 3d
       0.11667854 0.1966853 0.10578176 0.037725743

module.conv2.convolution.weight f4 [32, 16, 25]
000000 bf 3b a7 bd ab a8 8f bd a5 1f b4 bd 5e 11 05 3d
       -0.081656925 -0.07014593 -0.08795098 0.032487266
000010 93 07 69 3d cd 2a 58 3d 34 c8 c0 bb 7a 5b 8b bd
       0.05689199 0.052775193 -0.005883241 -0.06804557
000020 5b 77 15 be 9a d7 d5 bc 6c 46 3a be d1 f1 71 be
       -0.14596312 -0.026103783 -0.18190926 -0.23627402
000030 7f a4 c4 bd e3 51 3b bd ca b6 db bd e9 5b 0b 3e
       -0.09601688 -0.04573239 -0.107282236 0.1360928
000040 25 a7 f0 3b 7d 2a 8b 3d 99 b0 20 3e 71 2c 09 3e
       0.007344144 0.06795213 0.15692367 0.1339586
000050 71 fb dd bd 95 ee cd 3d d8 96 f8 bb 69 85 a8 bd
       -0.10838974 0.100552715 -0.0075863414 -0.08228571
000060 ee 32 e1 3d b0 5a a7 bd e3 9d 90 3c 86 86 05 3d
       0.10996042 -0.08171594 0.017653411 0.032598995
000070 f7 3d 93 bc b0 a9 05 3d 60 91 4b 3d 8b 53 f4 bc
       -0.017973883 0.03263253 0.049699187 -0.029824993
000080 a6 73 4f bd 72 05 2e 3d 06 e2 17 3d b1 19 04 bd
       -0.0506474 0.04248566 0.037080787 -0.032251064
000090 fc 3c 58 bc a7 d9 b3 3b 55 38 ff 3b 5f 8d 16 bd
       -0.013198134 0.0054885927 0.0077886977 -0.036755916
0000a0 8b 2b 0d bd c7 ba b7 bd 11 50 a5 3c 83 91 17 bd
       -0.034465354 -0.08971172 0.02017978 -0.037004005
0000b0 1d 92 58 bd 24 ba 17 bd 32 69 ae bc 49 1f c1 3a
       -0.05287372 -0.037042752 -0.021290395 0.0014734055
0000c0 ec 95 f0 3c a5 f8 59 bd d1 45 66 bc 98 6f d9 bd
       0.029368363 -0.05321564 -0.0140547315 -0.10616988
0000d0 2c 9c 7b bd 72 f5 a6 bd 3f eb 34 be 07 95 a8 bd
       -0.061428234 -0.08152284 -0.17667864 -0.0823155
0000e0 ff e1 56 bd 00 0c b6 3d 3c a5 7b 3c 35 1f 59 3c
       -0.05246162 0.088890076 0.015359219 0.013252069
0000f0 f4 89 d7 bc 70 b8 48 3c 05 bb 1f 3d 65 67 36 bc
       -0.026310898 0.012251005 0.038996715 -0.01113305
000100 a2 d6 28 3d 23 f0 ca bd 3f 30 59 bd 33 8f 32 3d
       0.041220315 -0.09909084 -0.053024527 0.043593597
000110 d0 ef 95 bd 7a 7b e3 bd 45 ba 09 3e f0 62 c6 bd
       -0.07321131 -0.11107536 0.13449962 -0.096868396
000120 f8 c2 4a 3c 0a 29 e4 3c 51 de 21 bd ea d1 cf 3c
       0.012375586 0.0278516 -0.039518658 0.02536865
000130 48 4b 0c bc 24 d3 be 3b 81 67 c8 bb e1 52 20 ba
       -0.00856287 0.00582351 -0.0061158543 -0.00061158655
000140 db e3 21 bc 62 32 20 bc c8 c7 00 3c b7 84 46 bc
       -0.009880985 -0.009777637 0.007860132 -0.012116603
000150 1d 4b 8b 3b d8 ff 1c 3c 6c d2 a1 3b d8 59 54 3b
       0.0042508976 0.009582482 0.0049384143 0.0032402184
000160 1b 16 c0 bb b2 a3 3a bc 85 b7 11 bc dd 11 5e bc
       -0.00586201 -0.011391567 -0.008893852 -0.013554064
000170 15 73 9d bc 17 0d 3b bc d0 12 1a bc 51 cd 55 3c
       -0.019219914 -0.011416695 -0.009403899 0.0130494395
000180 36 00 9c bc f7 ca b5 bb b7 90 27 bc e0 3b 33 bc
       -0.01904307 -0.005547877 -0.010227374 -0.010939568
000190 fe 19 50 bd f3 62 b2 bc a8 d5 bf bc 68 c7 95 3b
       -0.050806038 -0.021775698 -0.023417309 0.00457089
0001a0 aa 0b 04 bc 63 d9 c5 3d 1b 96 63 3d 59 c6 78 3d
       -0.008059422 0.09660604 0.055563074 0.060736034
0001b0 20 95 aa 3d 41 4d 90 3c 91 4d 2c 3d 83 70 de ba
       0.083292246 0.017614963 0.04206616 -0.0016970787
0001c0 cf 2d cb bc 88 61 f7 bc 92 cf ee bc 5c 28 fa bc
       -0.024802117 -0.030197874 -0.029151712 -0.030536823
0001d0 1a 6d 60 bc d9 af 0b 3d 5d 88 8a 3d eb 25 93 3d
       -0.013697887 0.03410325 0.067642905 0.07184967
0001e0 45 ca 94 3d 9c f5 c7 3d 1d 29 50 bd b4 5d 5e bd
       0.07265142 0.09763643 -0.05082046 -0.05428858
0001f0 6e 36 24 be e7 da 9f bd 9c 7b 1a 3c 03 0f be bd
       -0.16036388 -0.07805424 0.009428885 -0.09280207
000200 cb 97 1a be 6e d6 4d 3d 47 09 4d 3d bb 5a 23 bc
       -0.15096967 0.050253324 0.050057676 -0.009970362
000210 d5 4d 44 3d c2 7f 14 be 29 78 04 be f6 98 a1 3d
       0.04792579 -0.1450186 -0.12936462 0.07890503
000220 29 d0 29 3b e3 e1 75 3d d8 bc 3f 3d a2 7b 0e 3d
       0.0025911427 0.060029875 0.046810955 0.034785874
000230 8f 54 24 3c 21 b5 cb bd 70 8f d1 3c 4d 34 fe bc
       0.010029926 -0.09946657 0.025581092 -0.031030798
000240 ad b5 82 3d ac 89 6e bd 24 df d2 3c f5 59 43 3d
       0.06382308 -0.058236763 0.025741167 0.04769321
000250 80 a7 e6 3c a3 1d 55 bd d1 ba 36 bd cc ce 82 3d
       0.028156042 -0.052030217 -0.044611756 0.063870996
000260 40 5b 99 bd d8 f3 ae bc 76 40 5a 3d e4 ed b9 bd
       -0.07488108 -0.021356508 0.05328413 -0.09078577
000270 95 18 3c bd 2f e5 e5 bd 8b ef 3b bd f4 49 30 bc
       -0.04592188 -0.11225354 -0.045882743 -0.010759819
000280 a4 61 aa 3c 12 62 a8 bc 46 2a 9e bd 63 31 06 bd
       0.020798512 -0.020554576 -0.07722907 -0.032761943
000290 14 4a 2b bd 8d 8b 8b bd 5f 6a b3 3b 20 df 36 3d
       -0.041818693 -0.068137266 0.005475327 0.044646382
0002a0 e2 66 39 3d bd 81 92 bd b3 9c 94 bd b0 1c 33 3c
       0.045264132 -0.07153652 -0.072564505 0.010932133
0002b0 98 54 25 3d f8 a1 d4 bd 67 6c da 3d 6a 25 ca 3a
       0.040363878 -0.103824556 0.10665207 0.0015422527
0002c0 00 e3 68 3b c3 7a b1 3b e7 44 db 3b df ba b9 3b
       0.0035535693 0.0054162457 0.0066915634 0.0056680287
0002d0 e0 af 27 3b 34 c9 ed 39 f1 be 88 ba e6 d8 18 bb
       0.0025587007 0.0004535407 -0.0010432882 -0.002332264
0002e0 be 55 ba bb f4 a6 fa bb c6 cc c9 bb 18 43 7b bb
       -0.005686491 -0.007649297 -0.006158444 -0.0038339552
0002f0 ef 48 a1 bb 69 73 b4 bb 6c 6a ed bb 74 fd 02 bc
       -0.0049220244 -0.005506922 -0.0072453525 -0.007994998
000300 a0 33 0c bc 14 43 d3 bb 55 43 76 ba 7c 2a d3 3b
       -0.00855723 -0.0064472053 -0.00093941885 0.0064442735
000310 7a 11 70 3c 58 56 8c 3c 1d e0 4e 3c 43 98 eb 3b
       0.014652604 0.017131016 0.012626675 0.007189782
000320 74 e6 d5 bd a8 3f 9b 3c b2 9f 8a 3d 1e 9d 05 3e
       -0.10444346 0.018951252 0.06768741 0.13048217
000330 20 65 08 3e 07 5d f5 3c dc e4 87 bd 22 93 93 bd
       0.13319826 0.029951585 -0.06635448 -0.07205798
000340 23 45 38 3b b9 d5 f1 bc 70 1f b0 bd 1c c8 dd 3d
       0.002811738 -0.029520856 -0.08599746 0.108291835
000350 17 c6 a3 bd f6 6e 52 bd 42 2a 5e 3d 09 63 02 3d
       -0.07996767 -0.05137535 0.05423952 0.03183273
000360 b6 4b 0b 3e 53 a4 10 3e b9 07 6b bc 04 d4 11 3e
       0.136031 0.14125185 -0.014345103 0.14241034
000370 dc 85 a1 bd 6d 14 17 3d e7 7d 97 3d 9b a2 d8 bc
       -0.0788686 0.036884714 0.07397061 -0.026444724
000380 63 14 36 bd 90 91 1e 3d ee 9e 44 bd ac 35 c5 3b
       -0.044453036 0.038713038 -0.04800313 0.006018361
000390 53 4b 17 bd 0d 8e 29 bb 83 f1 2d bd 80 d5 fb bc
       -0.03693707 -0.0025872022 -0.04246665 -0.030741453
0003a0 bf 25 94 bc c1 d1 5d 3d 63 ad b9 3d 98 bf 18 3d
       -0.018084405 0.054155115 0.09066274 0.037292093
0003b0 7f 89 48 bd a8 9b 28 3d 64 92 f5 3c 52 d9 69 bd
       -0.04895925 0.04116407 0.029977031 -0.05709202
0003c0 20 ed 4d 3d 0d 4c b8 3c c9 55 4e bc 9c 5c 98 bd
       0.05027497 0.022497201 -0.012593695 -0.07439539
0003d0 40 ba a9 3c d4 70 d1 39 52 f6 d2 3c 67 6d c2 bd
       0.020718694 0.0003994765 0.02575222 -0.09493523
0003e0 5f 1a dd 3c 33 2a e5 bb 26 4a 76 3b 20 08 cc 3b
       0.026990114 -0.006993556 0.0037580817 0.0062265545
0003f0 b3 5f ad bb c2 73 73 3c f5 df 92 3c 0a 2c a1 bc
       -0.0052909493 0.014859142 0.017929057 -0.01967432

module.conv2.convolution.bias f4 [32]
000000 77 24 d8 3d 06 f7 4f 3d 5e a3 be 3d 31 75 09 3d
       0.1055383 0.05077269 0.093085036 0.033559028
000010 d1 dc 83 3d 75 84 87 3d d2 c9 af 3d e5 83 c3 3d
       0.06438602 0.06617061 0.08583416 0.09546641
000020 14 3d 8f 3d b2 24 d8 3d ed 89 02 3e 51 2e 7b 3d
       0.069940716 0.10553874 0.12747927 0.061323468
000030 fa 30 10 3e 02 30 06 bd 36 2b b0 3d bb 91 d6 3c
       0.14081183 -0.032760628 0.08601992 0.026192537
000040 42 f5 d5 3d ec d5 67 3d d2 c0 a8 3d 3d 46 97 3d
       0.1044717 0.056600496 0.082399026 0.07386444
000050 7b b1 ae 3d 8b 1a 5f 3d 2d a9 09 b7 c0 5c 06 3e
       0.085299455 0.054468673 -8.205226e-06 0.13121319
000060 62 4c f5 3d 9b 6d c1 3d ef 24 04 3e 25 50 e4 3d
       0.119774595 0.09444734 0.12904714 0.11148099
000070 05 4f 5a 3d 77 14 bd 3d ee 2f bd 3d 69 ca ad 3c
       0.053298015 0.09232419 0.092376575 0.02121468

module.conv3.convolution.weight f4 [64, 32, 25]
000000 70 26 49 3d 20 ff a5 3c 06 3d 6b 3d ed 77 8c 3d
       0.049108922 0.020263255 0.057431243 0.068588115
000010 a6 a5 c0 3d 97 ee 91 3d fa f2 88 3c e8 c7 cd bd
       0.09406595 0.071255855 0.016717423 -0.10047895
000020 ae 3f 4c 3c c9 5e 2a 3c 09 04 09 bd 84 90 12 3d
       0.012466354 0.010398575 -0.033451114 0.035782352
000030 c1 58 2f bd 56 5f 04 3d 51 21 10 3d e7 55 0c 3d
       -0.04280925 0.032317482 0.035188023 0.03426161
000040 49 e5 45 bc 65 a5 da bd 09 b9 b4 bd b9 cc 9d bd
       -0.012078592 -0.10676078 -0.08824355 -0.077050634
000050 0c ac b4 3a 03 bb 3e 3d 22 79 16 3d 23 b3 9a bd
       0.0013784184 0.046565067 0.036736615 -0.07553699
000060 55 06 a3 bc 38 de 52 3d dd 2d ab bc 6b 20 81 bd
       -0.01990048 0.051481456 -0.020895893 -0.06305011
000070 30 b2 de bb c5 c1 6a bb 68 8a 81 3d 32 f8 df 3c
       -0.006796144 -0.0035821062 0.06325227 0.027340028
000080 06 b8 db 3d 8f 4b 4a bd 06 be b2 bc f2 5f 11 bd
       0.10728459 -0.049388465 -0.021819126 -0.03549189
000090 59 7c 64 3c e0 1d 94 3d 89 69 53 3d bf 5f 5a bb
       0.013945662 0.07232261 0.051614318 -0.003332123
0000a0 c3 df 95 bd 8e 72 85 bd 7e 06 03 be 50 a1 80 bd
       -0.0731807 -0.0651599 -0.12795445 -0.06280768
0000b0 d7 4c 77 3d 8f fa dc bd c2 6b 75 3d 49 7b c4 bb
       0.060376015 -0.10789978 0.05991722 -0.005996142
0000c0 68 61 b6 3d 3f 76 c3 3b aa ac 1a 3d a6 19 7d 3d
       0.089052975 0.005965024 0.03776232 0.06179204
0000d0 7f 44 48 3d cd b8 ef 3c 7d 2b 24 bc 4f 9e b2 3b
       0.048893448 0.029262925 -0.010020134 0.0054510008
0000e0 a4 9a 94 bc 34 e1 4c 3b 2f 9e 39 bd a9 e6 62 bd
       -0.018140145 0.0031262161 -0.04531687 -0.055395756
0000f0 13 1a 0f bd bf d7 e5 bc a1 e3 b4 3b 48 ef 16 bd
       -0.034936976 -0.028056977 0.0055202995 -0.03684929
000100 90 e0 84 bd b2 bf 52 3c 39 e9 27 bc d3 28 85 bd
       -0.064881444 0.012863087 -0.010248476 -0.06501927
000110 b3 d9 a6 bd 09 56 0c bc 26 bf 76 bc d5 e0 c7 3d
       -0.081469916 -0.008565434 -0.015060222 0.0975968
000120 0f dd 8e 3d e3 4e 5b bd 0e b7 06 bd 3f 73 19 3d
       0.06975757 -0.05354203 -0.03288942 0.037463423
000130 e9 28 3c 3d bc 79 36 3d ce c7 36 3d 68 c8 37 3d
       0.045937452 0.04454969 0.044624142 0.044868857
000140 45 62 68 3d 89 7b 9c bd 88 4a 1a bd c7 60 15 be
       0.056734342 -0.0764075 -0.037668735 -0.14587699
000150 64 59 10 be 3b c1 f9 bd 84 3e 5a bd cf c2 a8 bd
       -0.140966 -0.12195059 -0.053282276 -0.08240282
000160 c3 c9 bb ba cf 9a f6 bd c3 1c a6 3c 38 61 e7 3a
       -0.0014327097 -0.12041246 0.020277387 0.0017652875
000170 72 f5 c7 bd a0 fc ef bd d9 39 d8 bd 40 b7 60 3d
       -0.09763612 -0.11718106 -0.105579086 0.05486226
000180 e8 a7 8d 3d 45 b7 e2 bc c9 b7 2b bd a7 07 cd bd
       0.06916791 -0.02767528 -0.041923318 -0.10011225
000190 01 71 b5 bc b8 3f a8 bc ee dd fd bc 78 0f f1 bc
       -0.022148611 -0.020538196 -0.030989613 -0.029426321
0001a0 a3 4e c5 bc 44 b6 7d bb 6d 4c b7 bc 20 02 42 3c
       -0.024085348 -0.0038713375 -0.02237531 0.011841327
0001b0 19 4b ea 3c ce aa 0e bd b4 27 34 bd bf 76 dc 3b
       0.028600262 -0.03483086 -0.043983176 0.006728023
0001c0 19 07 5c 3d 4d f2 86 3c b2 f4 c9 3c 10 96 00 bd
       0.053717706 0.01647296 0.024652813 -0.03139311
0001d0 d9 6d d6 3c 74 96 0b bd ef 75 10 3c 2e d5 3a 3a
       0.026175426 -0.03407903 0.00881718 0.0007127103
0001e0 e7 d9 2e 3d bb 21 7b 3d 67 bc dc bc 70 f7 f9 3c
       0.042688277 0.061311465 -0.026945306 0.030513495
0001f0 d6 08 5d 3c c6 a8 4b bb bd 24 dd bc 9b 15 86 bd
       0.013490876 -0.0031075939 -0.026995057 -0.0654709
000200 e2 39 d1 3d a1 27 78 bd d2 e6 7c bd 30 10 03 3d
       0.102161184 -0.060584668 -0.061743565 0.03199786
000210 81 44 15 3a 2e a4 9c bd ed 42 ab bc 57 0f 5b bd
       0.0005694107 -0.07648502 -0.020905936 -0.053481426
000220 ab ea 1e bd fe 5b b2 3c 56 6d 38 bc 90 69 02 3e
       -0.038798016 0.02177238 -0.0112565365 0.12735581
000230 2d c7 16 bd 93 e6 4c bd 3b f1 59 bd 88 74 30 3d
       -0.036811043 -0.05002458 -0.05320857 0.043079883
000240 6a 24 01 bd 5c cc ff bc 4f 0f b7 bc bf 6a d4 3c
       -0.031528868 -0.031225376 -0.022346167 0.025929807
000250 57 82 63 3d a8 35 42 bd 37 5e f5 bc 32 e8 40 3d
       0.055544224 -0.04741445 -0.029952152 0.04709644
000260 bc 74 f6 bb 56 15 a8 bc f6 04 c7 3c 62 2d e2 3d
       -0.00752124 -0.020517986 0.024294358 0.11043812
000270 84 1a 25 bd cd e9 b8 bd db 84 cd bd 18 a8 d9 bd
       -0.04030849 -0.09028969 -0.10035106 -0.106277645
000280 b0 4e c6 bd 57 5d 47 3d 24 3d fe bd 01 b7 4d bd
       -0.09682977 0.048673 -0.124140054 -0.050223354
000290 1f 76 52 bd bb 9e bb bd 78 13 b1 bd d1 6e 97 bc
       -0.05138218 -0.09161135 -0.086462915 -0.018485459
0002a0 63 cc e2 bd 01 e5 00 3d 9d 8b b7 bb 57 fd 04 3d
       -0.1107414 0.031468395 -0.00560136 0.032468166
0002b0 89 f9 cc bd d3 8b b5 bd 0e c7 e7 bb 37 9b 3d bd
       -0.100085326 -0.0886456 -0.0070732897 -0.046290603
0002c0 38 2f 82 3c 9c ad e8 bc fb 67 1b bd 33 36 61 3d
       0.015891656 -0.028403096 -0.03794096 0.05498333
0002d0 9c 3a 82 3d d3 a6 41 bd 42 67 af bc f0 41 13 bd
       0.06358835 -0.047278237 -0.021411542 -0.035951555
0002e0 86 9c ed bb 8e 0f 01 bd a7 e0 cd bd ad ee cb bc
       -0.007251325 -0.031508975 -0.10052615 -0.024894083
0002f0 45 f7 c0 3b d6 e6 a1 3d 38 3b 68 3c f6 11 9e 3b
       0.005888852 0.079053566 0.014174275 0.0048239185
000300 0a 5c 85 bd 2d 5f cc bc 29 3c 90 bd 07 ec 05 3a
       -0.06511696 -0.024947727 -0.07042725 0.0005108718
000310 2a 9d 76 bd ca 40 ea bc 53 19 0c ba 0d 68 c1 bd
       -0.060208477 -0.028595347 -0.000534435 -0.09443674
000320 3f 0e 08 bd 72 c1 43 bd f0 ee ba bd de 11 6b 3d
       -0.03321671 -0.047791906 -0.09127605 0.057390086
000330 fa 68 6c 39 5c c0 cc bc 31 71 fe 3d 4e d8 5e 3d
       0.0002254582 -0.024994068 0.12423933 0.054405503
000340 69 57 89 bd 2b 65 36 3d f3 ab 50 3c 7d 56 b9 3d
       -0.06706125 0.044530075 0.012736308 0.090496995
000350 6d 41 38 3c 1f 10 11 3e b4 ca c2 3d f6 e8 43 3c
       0.0112460675 0.14166306 0.09511319 0.011957398
000360 a2 28 bb 3c af 28 08 bc f9 6a 3b bd 41 24 8a bd
       0.022846524 -0.008310481 -0.045756314 -0.06745196
000370 2a 96 35 3d 68 d8 55 3d be 28 17 3d 6f ff 92 3b
       0.04433266 0.052208334 0.03690409 0.0044860165
000380 0b 92 0b bd eb 02 ae bc e7 93 64 bc 43 cc fb bb
       -0.034074824 -0.021241626 -0.013951278 -0.007684262
000390 9f af f5 bb a7 19 5e bc 2c e7 a7 bc ab 93 82 bc
       -0.0074977423 -0.013555921 -0.020495974 -0.015939554
0003a0 f5 ac 7a bc 4f d7 09 bc 03 2f cb ba 46 1a 2a ba
       -0.015300025 -0.00841315 -0.0015501681 -0.00064889004
0003b0 3d 26 3d bb a4 16 85 bb ff 3a 35 bc cb 8a 0e bc
       -0.0028861903 -0.004061537 -0.011061429 -0.008700083
0003c0 c3 5d 44 3c c2 e4 52 bc 88 7e 2b bc 12 b0 db bb
       0.011985245 -0.012871923 -0.010467179 -0.006704339
0003d0 d7 51 37 b9 c5 90 e4 3b a2 de fb 3a 83 ba 05 3b
       -0.00017482728 0.0069752657 0.001921613 0.002040536
0003e0 9d 71 cb b7 05 51 bb bb d1 a7 3c 3b 86 b8 22 bd
       -2.4252391e-05 -0.0057164454 0.002878655 -0.039726757
0003f0 d8 45 8a 3c d9 4f da bc 8b a1 a4 bc 85 70 70 bc
       0.016879007 -0.026649402 -0.020096561 -0.014675264

module.conv3.convolution.bias f4 [64]
000000 29 80 9f 3d e4 02 38 3d b4 c3 e6 3d 2f 59 1b 3e
       0.077881165 0.04492463 0.11267796 0.1517074
000010 02 e0 8c 3d b2 8e 44 bb 0e 7c 14 b3 08 34 38 3d
       0.068786636 -0.002999228 -3.4571762e-08 0.044971496
000020 9d 5e a9 3d 08 ec b7 3a 4b 21 ed 3d 9e 37 a0 3d
       0.08269999 0.0014032135 0.11578616 0.07823108
000030 dc d7 5d 3d 42 52 31 3d b9 11 7c 83 48 18 a9 3d
       0.054160938 0.043291338 -7.407649e-37 0.082565844
000040 ab 23 ce 3d 74 e7 4d 3d 84 6b 87 3d 58 cc f7 3c
       0.10065397 0.05026956 0.06612304 0.030248806
000050 b2 38 7d bd 9b 78 81 3d cc a9 d0 3d c5 c0 ac 3c
       -0.061821647 0.06321832 0.10188636 0.021088013
000060 10 1a fd bb b5 3f 97 bd b4 3b 0e 3e c6 a2 41 3c
       -0.007724054 -0.07385198 0.13889962 0.011818593
000070 4d 06 f3 3d 1f 05 90 3d 6f 99 82 3d 4f 5b 6c 3d
       0.11866436 0.07032227 0.063769214 0.057704266
000080 a3 bc 94 3d b4 ea 35 3d 81 65 38 bb 2e 47 73 3d
       0.07262542 0.044413283 -0.0028136673 0.059394054
000090 01 89 bc 3d 6d 31 70 3d 36 d5 4e 3d a7 a9 a0 3c
       0.09205819 0.058640886 0.050496303 0.019612147
0000a0 74 35 a9 3d a3 18 87 3d 3e ea 8a bb 83 70 88 3d
       0.082621485 0.06596496 -0.0042393496 0.06662085
0000b0 34 77 35 bb 20 2c 92 3d 62 95 33 bd 9f 05 25 3d
       -0.0027689459 0.071373224 -0.043843634 0.040288564
0000c0 7b c4 a6 3c 42 53 95 3d 9e aa e8 3d 0f 31 7b 3d
       0.020357361 0.07291271 0.11360668 0.061326083
0000d0 82 ce 34 ba 0e 4d d3 3c 9a bc d1 3d 57 49 9d 3d
       -0.0006897227 0.025793578 0.10241051 0.07680004
0000e0 99 09 fe 3c 9b 9e b1 3d 0b 8d e2 3d df 39 e3 3d
       0.031010436 0.0867283 0.11062058 0.110950224
0000f0 de d2 ac 3d 3a f3 ed 3c cb f9 07 b6 9f 95 b8 3d
       0.08438657 0.029046644 -2.0261966e-06 0.09012913

module.conv4.convolution.weight f4 [64, 64, 25]
000000 33 f3 00 00 34 19 05 00 cd 05 03 00 76 15 05 80
       8.7243e-41 4.68219e-40 2.77587e-40 -4.66876e-40
000010 9a 84 01 80 9e 12 03 80 ad 26 01 80 5f b4 02 80
       -1.39404e-40 -2.82185e-40 -1.0571e-40 -2.48376e-40
000020 c2 b8 00 80 3e 00 03 80 b7 d8 02 80 b1 d5 00 80
       -6.6279e-41 -2.75593e-40 -2.61414e-40 -7.6658e-41
000030 07 79 04 80 2b ca 06 80 a2 84 06 80 2c 3b 01 00
       -4.10758e-40 -6.23537e-40 -5.98593e-40 1.13062e-40
000040 4a 8f 04 80 5d 5f 04 80 5a c5 01 00 d7 85 03 00
       -4.18744e-40 -4.01552e-40 1.62632e-40 3.23519e-40
000050 ad 53 05 80 3b 20 06 00 4a ca 02 80 03 4b 06 80
       -4.89195e-40 5.62575e-40 -2.56239e-40 -5.77922e-40
000060 eb 76 01 80 35 6a 02 80 3b 68 03 80 7e 6f 06 80
       -1.34495e-40 -2.21771e-40 -3.12897e-40 -5.91009e-40
000070 62 aa 03 00 c4 f3 04 00 00 72 06 80 dd 7c 06 80
       3.36628e-40 4.54789e-40 -5.91908e-40 -5.95805e-40
000080 9e b9 03 00 a1 c6 00 00 cb a7 05 00 a4 78 01 00
       3.42093e-40 7.1255e-41 5.1937e-40 1.35113e-40
000090 06 4f 06 00 c9 a2 02 80 88 a9 00 80 96 1a 00 80
       5.79361e-40 -2.42067e-40 -6.0816e-41 -9.537e-42
0000a0 ef ba 04 80 b3 e2 04 00 c6 81 01 80 84 56 01 00
       -4.34401e-40 4.48666e-40 -1.3839e-40 1.22871e-40
0000b0 67 84 06 80 95 c9 01 80 36 bf 05 80 65 5b 03 80
       -5.9851e-40 -1.6415e-40 -5.27771e-40 -3.08293e-40
0000c0 59 09 05 80 20 78 05 80 a6 60 05 80 48 65 05 80
       -4.62531e-40 -5.0227e-40 -4.93848e-40 -4.9551e-40
0000d0 1d d8 01 00 73 30 01 80 4c 75 00 80 3e 0a 03 80
       1.69362e-40 -1.09216e-40 -4.2078e-41 -2.7918e-40
0000e0 3c 9a 05 80 07 48 01 00 23 79 03 80 80 27 06 80
       -5.14506e-40 1.17674e-40 -3.18962e-40 -5.65183e-40
0000f0 89 69 04 80 78 aa 00 80 8b 41 03 00 aa d5 06 80
       -4.05201e-40 -6.1153e-41 2.99019e-40 -6.27661e-40
000100 25 81 01 80 25 8b 03 00 36 b4 01 80 d5 0f 06 80
       -1.38164e-40 3.25422e-40 -1.56483e-40 -5.56692e-40
000110 7f 6e 00 00 a2 c4 03 00 fc 27 06 00 c8 37 04 00
       3.9639e-41 3.46045e-40 5.65357e-40 3.87353e-40
000120 ee ca 03 00 60 99 00 00 3e 54 06 80 7e 6e 00 00
       3.48304e-40 5.502e-41 -5.81233e-40 3.9637e-41
000130 19 56 03 80 8e 38 00 00 aa 5c 01 00 64 db 00 80
       -3.06393e-40 2.0288e-41 1.25077e-40 -7.8703e-41
000140 a2 b8 02 80 4e 4a 05 80 3e 1f 03 80 d9 62 01 80
       -2.49905e-40 -4.85833e-40 -2.86714e-40 -1.27295e-40
000150 e8 4b 02 00 31 8b 01 80 3d 44 02 80 ff b9 04 00
       2.10901e-40 -1.41768e-40 -2.0815e-40 4.34065e-40
000160 ff 2b 02 00 34 05 04 00 cd be 00 80 9b 61 04 00
       1.99454e-40 3.69209e-40 -6.8446e-41 4.02356e-40
000170 cd b8 01 00 04 88 05 00 8f b0 06 00 54 ab 00 00
       1.5813e-40 5.0797e-40 6.1435e-40 6.1461e-41
000180 36 2d 04 80 a6 fa 02 80 e4 24 05 80 d3 55 01 00
       -3.8356e-40 -2.73587e-40 -4.72411e-40 1.22623e-40
000190 53 9d 02 80 1b b4 06 00 4b 8a 05 00 d2 11 05 80
       -2.40108e-40 6.15623e-40 5.08788e-40 -4.6557e-40
0001a0 c9 97 00 00 35 78 01 80 21 22 06 80 e3 1e 01 80
       5.445e-41 -1.34958e-40 -5.63256e-40 -1.02916e-40
0001b0 8e 45 02 00 b2 ca 06 80 af 4a 06 80 33 10 01 00
       2.08623e-40 -6.23726e-40 -5.77804e-40 9.7647e-41
0001c0 12 17 00 00 ad 12 02 80 8a 3e 03 00 ce bf 03 00
       8.276e-42 -1.9037e-40 2.97941e-40 3.44313e-40
0001d0 f5 8d 02 80 33 39 06 00 c2 7f 04 80 f9 f9 01 80
       -2.34596e-40 5.71532e-40 -4.13173e-40 -1.81509e-40
0001e0 6d 9c 06 80 81 48 00 80 69 fa 04 00 6c c4 04 00
       -6.07128e-40 -2.601e-41 4.57172e-40 4.37805e-40
0001f0 36 2a 06 00 52 76 05 00 b0 26 00 00 ac ec 03 00
       5.66155e-40 5.01623e-40 1.3878e-41 3.60408e-40
000200 e7 86 04 80 c8 52 03 00 b7 a4 03 80 16 cc 00 00
       -4.15736e-40 3.05203e-40 -3.34595e-40 7.3212e-41
000210 6e 22 04 80 ed b5 06 80 37 17 04 80 ea 18 06 80
       -3.79693e-40 -6.16276e-40 -3.7567e-40 -5.5995e-40
000220 0e 3f 04 00 a6 85 00 00 1f 76 00 00 19 da 05 80
       3.89962e-40 4.7944e-41 4.2374e-41 -5.37416e-40
000230 43 4b 00 80 38 7d 00 00 04 ae 01 00 7a 2a 01 00
       -2.6999e-41 4.492e-41 1.5426e-40 1.07073e-40
000240 b8 d1 06 00 7e e1 05 80 88 91 01 80 5c 47 06 00
       6.26246e-40 -5.40069e-40 -1.44042e-40 5.76612e-40
000250 fa d3 05 00 39 be 05 80 cc 68 03 00 e4 0c 01 80
       5.3522e-40 -5.27417e-40 3.131e-40 -9.646e-41
000260 67 21 06 00 3e a0 02 00 22 30 06 80 c4 e3 05 80
       5.62995e-40 2.41155e-40 -5.6828e-40 -5.40884e-40
000270 ae ea 02 00 03 cf 05 00 e6 f6 04 80 c7 9e 06 80
       2.67858e-40 5.33439e-40 -4.55912e-40 -6.07972e-40
000280 9d 72 06 00 c9 8e 02 00 d7 c0 01 80 9c b0 06 00
       5.92128e-40 2.34893e-40 -1.61013e-40 6.14368e-40
000290 51 23 04 00 b5 38 02 00 01 c2 06 80 da b0 05 00
       3.80011e-40 2.04014e-40 -6.20608e-40 5.2262e-40
0002a0 cd cc 05 00 24 78 00 00 71 4a 03 00 a8 18 06 00
       5.32646e-40 4.3098e-41 3.02211e-40 5.59858e-40
0002b0 64 3b 04 00 c8 33 06 00 9c 36 00 80 7b af 05 00
       3.88647e-40 5.69589e-40 -1.959e-41 5.22128e-40
0002c0 71 c6 00 80 f9 0e 03 00 d2 81 02 80 d3 8c 06 80
       -7.1187e-41 2.80878e-40 -2.30242e-40 -6.01531e-40
0002d0 fd 9b 04 00 0e 4b 03 00 20 01 04 00 14 fa 05 00
       4.233e-40 3.02431e-40 3.67746e-40 5.48889e-40
0002e0 75 0a 02 00 2c e6 00 80 a5 57 02 80 55 5a 00 00
       1.87422e-40 -8.257e-41 -2.15112e-40 3.2405e-41
0002f0 c7 6f 00 80 ad 13 02 00 1f e6 01 80 77 ef 03 00
       -4.0098e-41 1.9073e-40 -1.74387e-40 3.6141e-40
000300 c5 a9 06 00 8a 5f 04 80 86 51 06 00 32 bc 05 80
       6.11915e-40 -4.01615e-40 5.80258e-40 -5.26689e-40
000310 db a9 01 00 dc d1 00 00 7d f6 02 00 11 01 06 80
       1.52768e-40 7.5283e-41 2.72094e-40 -5.51396e-40
000320 c0 e0 04 80 db ee 05 00 ce 08 06 80 70 59 00 00
       -4.47967e-40 5.44863e-40 -5.54172e-40 3.2084e-41
000330 0c 27 05 80 2c e0 06 00 cb 5b 03 00 71 c3 02 80
       -4.73185e-40 6.3143e-40 3.08436e-40 -2.53782e-40
000340 2c f7 05 00 03 76 01 80 2e 9e 00 00 3b a1 05 80
       5.47846e-40 -1.3417e-40 5.6744e-41 -5.17016e-40
000350 13 71 03 00 35 f9 04 00 74 53 01 80 29 ca 05 00
       3.1607e-40 4.5674e-40 -1.21773e-40 5.31699e-40
000360 7b 16 01 00 0f 4d 04 80 0d 8a 01 00 e6 8a 03 80
       9.99e-41 -3.94985e-40 1.41359e-40 -3.25334e-40
000370 00 49 05 80 cb af 03 00 fb 85 04 00 22 e4 04 80
       -4.85365e-40 3.38569e-40 4.15405e-40 -4.4918e-40
000380 1d b9 00 80 fc bc 06 00 e7 71 05 00 06 78 01 00
       -6.6406e-41 6.18808e-40 5.00038e-40 1.34892e-40
000390 db c2 02 00 aa 35 02 00 3d d8 05 00 53 75 02 80
       2.53572e-40 2.02922e-40 5.36749e-40 -2.25759e-40
0003a0 9b d2 02 00 c9 a2 05 00 79 44 06 80 6f 60 04 80
       2.59222e-40 5.17574e-40 -5.75576e-40 -4.01936e-40
0003b0 0d c8 04 80 b2 25 01 00 16 93 00 80 e9 39 02 80
       -4.39107e-40 1.05358e-40 -5.2764e-41 -2.04445e-40
0003c0 c0 83 02 80 f2 1e 06 00 8a 64 04 80 df 95 02 80
       -2.30934e-40 5.62114e-40 -4.03409e-40 -2.37435e-40
0003d0 56 f4 00 80 d0 62 06 00 55 90 02 80 a5 8d 04 80
       -8.7651e-41 5.8646e-40 -2.35448e-40 -4.18154e-40
0003e0 e8 94 05 00 ea 5f 06 00 1f 40 01 80 d0 ae 02 80
       5.12595e-40 5.8542e-40 -1.14838e-40 -2.46382e-40
0003f0 5b 17 04 00 83 28 05 00 d8 b3 04 00 51 6b 00 80
       3.7572e-40 4.7371e-40 4.31858e-40 -3.8498e-41

module.conv4.convolution.bias f4 [64]
000000 f2 5a a0 9b f8 c5 11 b7 fe 3b 28 3c 53 97 d2 3c
       -2.6528552e-22 -8.688767e-06 0.0102682095 0.025706923
000010 46 cb d8 3d da f4 37 3d a3 6f 7e 3d 5e 0c ac 3d
       0.10585646 0.044911243 0.062118184 0.08400796
000020 26 db a8 3d a0 9e 05 3e d6 2c d9 3c df 8d df 3c
       0.08244924 0.13048792 0.026510637 0.02728933
000030 bc d5 15 3e 90 87 71 3d e2 f6 9a 3d 39 0d 06 92
       0.14632314 0.058967173 0.075666204 -4.2299243e-28
000040 a1 94 29 3e 0d fa 05 3e 3f 5f 79 3c c4 6e 76 3d
       0.16560604 0.13083668 0.015220462 0.060164228
000050 b8 1b f2 bb b8 c3 0c 3e e5 ff 1a bb 84 6a 8b 3d
       -0.0073885582 0.13746536 -0.002365106 0.068074256
000060 a7 e3 0e 3e e0 2f f2 3d 6f 76 15 b1 24 52 ad 3d
       0.1395403 0.11825538 -2.1749675e-09 0.08462933
000070 cf dc 5f 3d 0c 57 a2 3d 0c be 7d 3d db c6 fd 3d
       0.05465394 0.07926759 0.06194882 0.12391444
000080 32 d3 5e 3d eb c0 a4 3d 8b 50 75 89 49 56 f0 3c
       0.05440063 0.08044609 -2.9528673e-33 0.029338019
000090 17 25 bc 3d c5 13 12 3e bc d0 16 3e 2f 7f 89 bb
       0.09186762 0.14265354 0.14728063 -0.0041960697
0000a0 f2 f4 b6 3d 2d 33 86 3d 48 5e 0e bd a2 88 09 3e
       0.08933438 0.0655273 -0.034757882 0.13431028
0000b0 c9 8c 12 bb a3 26 32 3d a6 67 34 3d 0e 8f f8 3d
       -0.0022361747 0.043493878 0.04404416 0.121366605
0000c0 2c 02 56 3d dd 9e be 3d e0 90 61 3d 95 82 2f 3e
       0.052248165 0.093076445 0.055069804 0.17139657
0000d0 93 4f 10 3e 27 27 b7 3d 74 1b 46 3d 30 d7 af 3d
       0.14092855 0.089430146 0.048366025 0.08585966
0000e0 1b 86 a3 3d cb 27 12 3d fd 4a bd 8e ee 25 ce 3d
       0.07984563 0.03568248 -4.666431e-30 0.10065828
0000f0 8f 2d 6c bc 9e 40 5a 3d e2 e3 eb 3d ce 89 d0 3d
       -0.014415159 0.05328428 0.115180746 0.10182534

module.fc.linear.weight f4 [16, 4096]
000000 1e 55 03 80 22 47 05 00 67 aa 05 80 bb c4 05 00
       -3.06041e-40 4.84695e-40 -5.20306e-40 5.29751e-40
000010 77 91 02 80 e1 15 06 00 38 f0 01 80 32 0a 06 00
       -2.35854e-40 5.58862e-40 -1.7801e-40 5.5467e-40
000020 2c ed 05 80 24 08 02 00 63 f1 02 00 d1 7f 03 00
       -5.44259e-40 1.86591e-40 2.70264e-40 3.21358e-40
000030 bd 1d 06 00 f6 b7 05 00 7b 5d 03 00 50 8d 04 00
       5.61681e-40 5.2517e-40 3.09041e-40 4.18035e-40
000040 06 d0 05 00 bc 25 06 00 bb cc 04 80 0c 91 03 00
       5.33802e-40 5.6455e-40 -4.40785e-40 3.2754e-40
000050 90 d6 03 80 0f 9d 06 80 f8 40 00 00 4d e0 06 80
       -3.52477e-40 -6.07355e-40 2.3306e-41 -6.31477e-40
000060 a7 34 01 80 bc c5 00 00 0a eb 04 00 ff a5 03 00
       -1.10724e-40 7.0934e-41 4.51658e-40 3.35055e-40
000070 cf 22 00 80 26 57 06 80 e1 2f 06 00 7e 65 01 80
       -1.2487e-41 -5.82276e-40 5.68189e-40 -1.28244e-40
000080 aa a8 01 80 39 66 06 00 0a 1c 02 80 dc 62 03 00
       -1.52341e-40 5.87684e-40 -1.9373e-40 3.1097e-40
000090 af bb 02 80 a6 c9 00 80 6b f0 00 80 01 68 02 00
       -2.50999e-40 -7.2338e-41 -8.6246e-41 2.2098e-40
0000a0 db 22 01 00 d3 a7 03 80 fa ed 05 80 f2 56 01 00
       1.04339e-40 -3.3571e-40 -5.44547e-40 1.23026e-40
0000b0 e4 d8 05 00 61 72 03 00 9b 3c 05 00 38 2a 06 80
       5.36983e-40 3.16538e-40 4.80919e-40 -5.66158e-40
0000c0 d5 22 01 80 f8 19 02 00 d3 d2 05 80 95 59 01 00
       -1.04331e-40 1.92987e-40 -5.34807e-40 1.23971e-40
0000d0 45 8c 05 80 30 5e 05 80 31 72 06 80 d8 87 01 80
       -5.09497e-40 -4.92966e-40 -5.91977e-40 -1.40567e-40
0000e0 35 29 03 80 2f 29 03 80 f8 5f 03 00 98 6f 03 80
       -2.90289e-40 -2.9028e-40 3.09934e-40 -3.15539e-40
0000f0 b8 d1 06 00 75 08 00 00 b1 a4 06 00 ed 78 05 00
       6.26246e-40 3.034e-42 6.10093e-40 5.02557e-40
000100 43 93 06 00 7c bb 00 00 0f ff 05 80 6e 4b 02 80
       6.0384e-40 6.7257e-41 -5.50675e-40 -2.1073e-40
000110 34 2e 01 80 98 70 05 00 58 72 05 00 28 0b 06 00
       -1.0841e-40 4.99569e-40 5.00196e-40 5.55015e-40
000120 a2 1a 05 00 de 6f 03 00 e9 a6 00 00 c9 02 00 00
       4.68732e-40 3.15637e-40 5.9876e-41 9.99e-43
000130 50 5d 01 80 6f 3b 06 80 bd 2e 05 00 e9 d9 05 00
       -1.2531e-40 -5.72334e-40 4.75944e-40 5.37349e-40
000140 1a 10 03 00 53 0f 02 00 fd ae 03 00 c7 52 04 80
       2.81283e-40 1.89168e-40 3.3828e-40 -3.97037e-40
000150 c4 1b 01 00 53 87 00 00 10 58 04 80 93 64 05 80
       1.01796e-40 4.8545e-41 -3.98933e-40 -4.95257e-40
000160 64 ca 05 80 fc 92 06 80 d3 cb 05 00 87 b7 05 00
       -5.31782e-40 -6.03741e-40 5.32296e-40 5.25015e-40
000170 3e 14 04 00 6e c2 06 80 38 ef 05 80 69 30 00 00
       3.74604e-40 -6.20761e-40 -5.44993e-40 1.7366e-41
000180 93 51 01 80 ef 02 04 00 93 4c 01 00 29 70 00 00
       -1.21099e-40 3.68394e-40 1.19305e-40 4.0235e-41
000190 0b 5c 04 00 85 56 04 80 61 25 00 80 bb 61 04 80
       4.00361e-40 -3.9838e-40 -1.3409e-41 -4.02401e-40
0001a0 63 5e 04 80 0a 52 06 80 a5 55 02 80 16 1c 04 80
       -4.01202e-40 -5.80443e-40 -2.14394e-40 -3.77417e-40
0001b0 74 28 03 80 37 a3 05 80 01 41 05 80 8e b7 04 80
       -2.90018e-40 -5.17728e-40 -4.82496e-40 -4.33189e-40
0001c0 05 35 02 80 e4 34 00 80 e1 c9 05 80 93 d9 05 80
       -2.02691e-40 -1.8974e-41 -5.31598e-40 -5.37228e-40
0001d0 ec 54 05 00 05 92 02 80 07 73 03 00 c8 23 02 80
       4.89642e-40 -2.36053e-40 3.1677e-40 -1.96507e-40
0001e0 c5 93 04 00 8e ce 05 00 ae d1 04 80 f8 52 06 80
       4.20352e-40 5.33275e-40 -4.42561e-40 -5.80777e-40
0001f0 54 1e 02 00 b4 7b 05 00 2c 9b 02 80 83 2d 06 80
       1.9455e-40 5.03554e-40 -2.39336e-40 -5.6734e-40
000200 64 ee 05 80 d2 33 00 00 23 26 02 80 da bc 02 00
       -5.44696e-40 1.859e-41 -1.97352e-40 2.51418e-40
000210 89 bb 05 00 f2 80 05 00 0b 16 01 80 ed ca 05 80
       5.26452e-40 5.05434e-40 -9.9743e-41 -5.31974e-40
000220 c6 2a 03 80 b6 00 00 80 b6 a6 01 80 a2 1e 01 00
       -2.90851e-40 -2.55e-43 -1.5164e-40 1.02824e-40
000230 cc 02 06 80 19 88 00 00 03 95 02 80 99 93 02 80
       -5.52016e-40 4.8823e-41 -2.37126e-40 -2.36619e-40
000240 6f 0b 04 00 b5 66 05 00 fe 2d 05 80 59 9a 05 00
       3.71444e-40 4.96022e-40 -4.75676e-40 5.14547e-40
000250 5f 36 00 00 5f ea 05 00 14 fe 05 00 2d f0 00 80
       1.9505e-41 5.43254e-40 5.50324e-40 -8.6159e-41
000260 1b 29 01 00 1b 4f 01 00 69 6d 03 00 85 df 06 00
       1.06581e-40 1.20213e-40 3.14755e-40 6.31197e-40
000270 f3 c1 02 80 7a 49 00 80 4c ee 05 00 fb 08 06 80
       -2.53247e-40 -2.6358e-41 5.44662e-40 -5.54235e-40
000280 e6 d0 01 00 b1 f2 05 80 42 45 06 00 ce 39 06 80
       1.66774e-40 -5.46239e-40 5.75858e-40 -5.7175e-40
000290 00 9a 05 00 25 f6 04 00 15 9a 01 80 f7 9f 00 00
       5.14422e-40 4.55642e-40 -1.4711e-40 5.7385e-41
0002a0 ea c2 06 00 fe fd 05 00 37 65 06 00 5b 66 05 80
       6.20935e-40 5.50293e-40 5.87322e-40 -4.95896e-40
0002b0 0b 43 05 80 1b 38 03 80 be 48 00 00 f9 9f 04 80
       -4.83228e-40 -2.95633e-40 2.6095e-41 -4.2473e-40
0002c0 4d 0f 06 80 25 f4 05 00 1f 34 06 00 05 7e 01 80
       -5.56502e-40 5.4676e-40 5.6971e-40 -1.37043e-40
0002d0 36 a1 04 80 7e 50 04 80 4d 94 05 80 19 50 05 80
       -4.25174e-40 -3.96217e-40 -5.12378e-40 -4.87911e-40
0002e0 80 7c 02 80 d5 9a 04 00 fe ea 03 00 bb 62 05 00
       -2.28333e-40 4.22885e-40 3.59806e-40 4.94595e-40
0002f0 db 6f 04 80 e0 72 43 b2 5d 98 04 80 d5 a8 06 80
       -4.07468e-40 -1.1376613e-08 -4.22e-40 -6.11578e-40
000300 14 fc 00 00 b5 f2 9a b7 0d 7f 28 b9 23 7a e3 b9
       9.0429e-41 -1.847125e-05 -0.00016069059 -0.00043387813
000310 46 17 04 b7 6e 6a 00 00 48 2b e0 b9 f3 d1 dc ba
       -7.873232e-06 3.818e-41 -0.00042756856 -0.0016847238
000320 b2 be 70 b8 0c b1 fb 32 dc cd 3f 36 44 1f 6d bb
       -5.7398058e-05 2.9300757e-08 2.8581044e-06 -0.0036181966
000330 94 68 1c b8 73 06 4d b7 36 38 9d 3b 9f c4 55 ba
       -3.7290694e-05 -1.2220454e-05 0.0047979606 -0.0008154604
000340 07 31 1a 3a 57 07 e5 ba 32 a9 4d 92 5c 6f ad b9
       0.00058819394 -0.0017473501 -6.4895144e-28 -0.000330801
000350 52 1e 76 b9 77 da 89 24 d1 6f 3b 3b d3 c0 a9 ba
       -0.00023471683 5.978437e-17 0.0028600583 -0.0012951143
000360 0a 5a 2c b4 3c 46 88 b9 51 96 b3 b8 a9 ae 92 ba
       -1.6051504e-07 -0.0002599227 -8.563384e-05 -0.0011190969
000370 42 6c 9f bb ef ca 02 bc 49 e9 00 bc 5e ec 08 b8
       -0.0048652003 -0.007982953 -0.0078681195 -3.264506e-05
000380 d8 e6 d2 37 fa a4 89 b9 42 96 cd b6 e2 e3 1a ba
       2.5141446e-05 -0.00026253593 -6.1269684e-06 -0.0005908591
000390 93 a5 c3 35 3a 06 05 bb 94 c0 14 b5 4a 7e 4d 39
       1.4576821e-06 -0.00202979 -5.5414534e-07 0.0001959737
0003a0 00 2a c1 ba 13 0c 34 b9 4e ba 9e b9 33 f9 00 36
       -0.0014737248 -0.00017170636 -0.00030274916 1.921854e-06
0003b0 d7 6e f7 b7 af ce 4e bb e3 dc a8 b8 6a e4 19 b9
       -2.9496308e-05 -0.0031556298 -8.0520076e-05 -0.00014676308
0003c0 0c dc 06 00 e1 ab 25 3b 81 52 e0 bb 78 84 68 3a
       6.29951e-40 0.002527945 -0.0068457727 0.0008869837
0003d0 09 10 8f 86 5b 00 bf b8 a7 0a 80 b9 64 53 30 38
       -5.3814183e-35 -9.107656e-05 -0.00024422 4.2039333e-05
0003e0 b8 74 c5 b9 06 75 cf 36 5b c2 01 80 94 24 ce b6
       -0.0003766173 6.182704e-06 -1.61557e-40 -6.1435367e-06
0003f0 e1 fe 01 80 7a f1 37 b6 15 79 3b 99 83 4d 91 29
       -1.83269e-40 -2.7409683e-06 -9.692126e-24 6.45274e-14

module.fc.linear.bias f4 [16]
000000 34 0d b8 bb 3f 1c 74 3d 87 2a 80 3c 54 c7 bf 3a
       -0.0056168083 0.05959725 0.015645279 0.0014631548
000010 66 e6 fc b7 37 b8 02 3e 97 fa 51 a0 17 15 69 3e
       -3.0148029e-05 0.12765585 -1.7785902e-19 0.22761951
000020 6a 51 52 bc f4 84 b1 3b c7 66 47 b9 f1 3d 6c 3e
       -0.012836793 0.0054174606 -0.00019016406 0.23070504
000030 15 2a e6 3c 6b 32 01 ba 9e 97 2a 3d 8e bb 94 bb
       0.028096238 -0.00049284723 0.0416485 -0.00453896

module.out.linear.weight f4 [1, 16]
000000 44 b9 db 3b 97 db 59 bd 1a f2 ff bd 64 f6 55 3c
       0.006705435 -0.053187933 -0.12497349 0.013059232
000010 f9 32 12 bd 56 eb 65 bd 42 9f 88 3c 36 d9 01 3d
       -0.035693143 -0.056132637 0.016677503 0.03170129
000020 96 bb b1 3c 14 8c 88 3d 96 fb 0b bd 4e 0c 31 3d
       0.021695893 0.06667343 -0.034175478 0.043224625
000030 bd c8 f9 bd 5a 21 bc bc 2f a2 24 be 49 8f dd ba
       -0.12196491 -0.022965122 -0.16077493 -0.0016903664
