deepSNIaID/trained_models/Phase.pth (torch_old, 875094 bytes, 11 tensors)

module.conv1.convolution.weight f4 [16, 1, 13]
-0.085241295 -0.1447859 -0.20540635 -0.0872256 -0.13659722 0.0333344 0.007482536 0.18959482
0.16736849 0.13240322 0.051523667 -0.043366823 0.099391334 0.10443666 -0.1328282 -0.13031192
0.16401152 -0.15143168 -0.055627212 -0.07436542 -0.04937411 0.07183407 -0.039530687 -0.014188093
-0.008051466 0.17481607 -0.0477413 0.050906945 0.011046109 -0.01345895 -0.11395255 -0.017059315
0.05751378 -0.048766974 0.0037294657 0.11945293 0.14755023 -0.039125655 -0.23313637 -0.0013727489
-0.1338265 -0.056190107 -0.026209988 -0.07344435 -0.11005948 0.049656607 0.041007873 -0.056264773
0.02109601 -0.017652204 0.026767118 -0.037591875 0.14266391 -0.0139154745 -0.019295953 -0.1755962
-0.12957451 -0.12410445 -0.09184349 0.034894284 0.12560031 -0.016325764 -0.2953687 0.18858913
0.18443106 -0.20493715 -0.07966877 -0.103810824 -0.040911045 -0.084589094 -0.1273682 0.22411144
0.03093641 0.048407298 0.099047124 0.1820115 -0.11904183 0.1930325 0.11055384 0.17825405
-0.012304033 -0.015472918 0.27292785 0.09949945 0.07156285 0.056046095 -0.036932893 -0.22433315
-0.19865355 -0.15487204 -0.08635483 0.038228236 0.010361192 0.11032658 0.19802205 -0.106142044
-0.06482805 0.061355937 0.16074918 -0.053451393 0.15847541 -0.0357994 -0.14708683 0.013552333
0.1846692 -0.042187963 -0.09990103 0.13050123 -0.2247025 -0.07698155 -0.18638003 -0.05709977
-0.14455178 0.053145792 0.29005426 -0.08000406 0.020746956 -0.065917864 -0.0032863226 -0.05576131
-0.016052857 -0.12186119 -0.08864772 0.047967136 -0.14978413 0.038588747 -0.068090215 0.15495962
0.022119952 0.08326024 -0.056968857 0.16717243 -0.02885756 -0.0068801777 0.0017683436 -0.12780942
-0.15937172 -0.088994384 0.011112747 0.17646872 -0.116748154 0.040013317 -0.034466896 -0.05899659
-0.037096746 0.012994869 -0.019464793 0.11616478 -0.07727268 -0.034657527 -0.09630442 0.009707856
0.084187225 -0.12683046 -0.10516779 -0.002531815 -0.031221796 -0.050863918 -0.036648825 0.06251005
-0.09216743 -0.013903763 0.0953149 -0.07520592 0.12857005 0.0076348106 0.13347974 -0.17026076
-0.18328299 0.095802866 -0.026934931 -0.12239956 0.2399942 -0.14922538 -0.13013269 0.0030357998
-0.034464378 -0.024373384 0.040671993 0.04383933 -0.116897255 -0.04933175 0.18317145 -0.07805482
0.14225999 -0.029639587 0.12727119 -0.049055457 0.055303123 0.022449056 -0.20472908 -0.060280923
-0.17998897 -0.066125214 0.018732777 0.016196936 -0.004207654 -0.07446582 0.035462927 -0.11064191
0.06853222 -0.08402259 -0.07274486 0.044600636 0.093414076 0.06441549 0.105860926 -0.05678282
00000000: fd92 aebd c142 14be 0b56 52be 56a3 b2bd
00000010: 24e0 0bbe a789 083d 1030 f53b 2525 423e
00000020: a562 2b3e b694 073e 7b0a 533d 69a1 31bd
00000030: af8d cb3d e3e2 d53d 1e04 08be 7d70 05be
00000040: a3f2 273e e810 1bbe 5cd9 63bd e64c 98bd
00000050: 823c 4abd be1d 933d eeea 21bd 2d75 68bc
00000060: 4cea 03bc fc02 333e 628c 43bd cd83 503d
00000070: bdfa 343c ee82 5cbc f45f e9bd fabf 8bbc
00000080: 9293 6b3d e1bf 47bd 0d6a 743b bda3 f43d
00000090: 6817 173e 3942 20bd 4dbb 6ebe cfed b3ba
000000a0: d009 09be 9927 66bd 54b6 d6bc fe69 96bd
000000b0: dd66 e1bd ba64 4b3d dff7 273d e475 66bd
000000c0: 8ad1 ac3c 5b9b 90bc b746 db3c f0f9 19bd
000000d0: 7d16 123e bbfd 63bc 8c12 9ebc 7ecf 33be
000000e0: 2eaf 04be 792a febd 7118 bcbd 4fed 0e3d
000000f0: 5e9d 003e 9cbd 85bc 913a 97be 821d 413e
00000100: 7fdb 3c3e 0bdb 51be 6129 a3bd c59a d4bd
00000110: 5792 27bd 0c3d adbd cf6c 02be 787d 653e
00000120: 5b6e fd3c bb46 463d 38d9 ca3d 3961 3a3e
00000130: 34cc f3bd 50aa 453e 0d6a e23d 3b88 363e
00000140: db96 49bc 1f82 7dbc 33bd 8b3e 5ec6 cb3d
00000150: 8b8f 923d 9790 653d f246 17bd 97b7 65be
00000160: d66b 4bbe c796 1ebe cdda b0bd 3695 1c3d
00000170: fdc1 293c e7f2 e13d 4bc6 4a3e 0061 d9bd
00000180: 92c4 84bd 5d50 7b3d 6f9b 243e d9ef 5abd
00000190: 6147 223e 64a2 12bd ee9d 16be 9b0a 5e3c
000001a0: ec19 3d3e 49cd 2cbd e998 ccbd 1da2 053e
000001b0: 6a18 66be 81a8 9dbd 68da 3ebe 73e1 69bd
000001c0: 6205 14be 67af 593d fe81 943e 2bd9 a3bd
000001d0: 85f5 a93c f2ff 86bd 585f 57bb f965 64bd
000001e0: 4881 83bc 5c92 f9bd f08c b5bd 3079 443d
000001f0: 0361 19be 3c0f 1e3d e272 8bbd bcad 1e3e
00000200: e734 b53c 5884 aa3d 2d58 69bd 402f 2b3e
00000210: b166 ecbc 1d73 e1bb c4c7 e73a 79e0 02be
00000220: 5732 23be b042 b6bd 3d12 363c 37b4 343e
00000230: a819 efbd 01e5 233d 292d 0dbd 69a6 71bd
00000240: c2f2 17bd 6ee8 543c a174 9fbc cde7 ed3d
00000250: 2441 9ebd 0df5 0dbd 403b c5bd b30d 1f3c
00000260: 5a6a ac3d d8df 01be 3662 d7bd cfec 25bb
00000270: dac4 ffbc af56 50bd 141d 16bd 4505 803d
00000280: 47c2 bcbd 9ccc 63bc 7534 c33d 9005 9abd
00000290: dea7 033e 6f2d fa3b eaae 083e d658 2ebe
000002a0: 89ae 3bbe 4b34 c43d a5a6 dcbc 9fac fabd
000002b0: 0ac1 753e 8ace 18be 8141 05be 45f4 463b
000002c0: 852a 0dbd b1aa c7bc ad97 263d df90 333d
000002d0: d467 efbd 1710 4abd 4c91 3b3e 35db 9fbd
000002e0: 9aac 113e b8ce f2bc 6153 023e 60ee 48bd
000002f0: 8785 623d 15e7 b73c 80a4 51be 21e9 76bd
00000300: 074f 38be a86c 87bd 7b75 993c 70af 843c
00000310: 5ce0 89bb 8981 98bd 9341 113d 3a98 e2bd
00000320: 9f5a 8c3d 0914 acbd 42fb 94bd 28af 363d
00000330: e14f bf3d 45ec 833d 9dcd d83d 1a95 68bd

module.conv1.convolution.bias f4 [16]
0.053489253 0.12975478 0.10047544 0.11240549 0.12604083 0.044554383 0.044611957 -0.08278583
0.19543812 0.10770155 0.11583899 0.0781345 0.095920965 0.0711222 0.13072398 0.021793332
00000000: 8c17 5b3d 70de 043e 11c6 cd3d d934 e63d
00000010: d910 013e a87e 363d 07bb 363d 9e8b a9bd
00000020: ee20 483e a192 dc3d fe3c ed3d fb04 a03d
00000030: 3672 c43d 84a8 913d 82dc 053e ee87 b23c

module.conv2.convolution.weight f4 [32, 16, 13]
0.04043357 0.028105233 0.016890557 -0.037855264 -0.17032261 -0.020342166 0.025957996 0.058388658
0.044035953 -0.004219034 0.066516906 -0.12018662 0.0035919258 0.12515295 -0.076355584 -0.08307435
-0.12048101 0.14794879 -0.008011289 -0.060695145 0.028599251 0.049844433 0.056945458 -0.16344218
0.05565012 -0.030262308 -0.026952393 0.02545738 0.10765671 -0.082004085 -0.10238731 -0.01902455
-0.034630626 -0.07540657 -0.020708716 0.05335314 -0.032070547 0.024507657 -0.0038378104 0.031480405
0.01948534 0.017918251 0.04498091 0.015730131 0.031794228 0.013169409 0.02125532 0.035987176
0.04199983 0.0058338675 0.049139965 0.004904959 -0.0636693 -0.057181336 -0.060954593 -0.09431859
0.0038709312 0.156968 -0.038581964 -0.06505119 -0.019915335 0.0013927856 -0.14153796 -0.0040589846
-0.0055616996 0.12107795 0.20098963 0.01788119 -0.031793173 0.049959462 -0.03105709 0.048881084
0.050094396 0.048428923 0.07844914 0.16872674 -0.030275512 0.06624533 -0.09727043 0.0662664
0.13661206 0.1578275 0.052833986 -0.054339793 -0.07325856 0.02139342 -0.13575697 -0.028377922
-0.127925 0.015609796 0.06843659 0.0011702937 -0.0008931141 -0.065288976 -0.009967268 0.005940697
0.08903894 -0.13609761 0.023612002 0.04084975 -0.0364334 -0.08089124 -0.051891096 0.023427943
0.0035057173 -0.034352403 -0.109371096 -0.10212107 2.7905251e-05 0.20163696 0.10610903 -0.045408964
-0.038037743 -0.064576276 -0.0869733 0.0030244042 -0.011827885 0.025653996 0.022122458 -0.035943117
0.04950579 -0.027013918 -0.00909813 0.006751324 0.061653234 0.115047045 -0.051741436 -0.028655704
-0.04247957 0.105473876 0.020401815 -0.10640216 0.06429176 -0.03576176 0.04043204 -0.01342114
0.051614203 -0.008151104 -0.10526675 -0.038066536 -0.049568035 -0.099231176 0.051715557 0.073374026
0.03262096 -0.008993854 0.10652297 0.06105517 0.096728474 0.02216776 -0.07562686 -0.018679721
-0.050914474 0.032260843 0.012303937 0.021852134 0.035408158 0.028875697 0.031634215 0.02954265
0.08466569 0.008394718 0.052692752 -0.04837449 -0.040054437 0.0007427981 0.029365161 0.027511084
0.020652052 0.124146156 0.056474626 -0.027246166 -0.01968007 -0.02012362 -0.02930483 -0.04670805
0.066367514 -0.09421686 0.009840522 0.009253796 0.09878087 -0.048359167 -0.13519324 -0.070937425
0.12992914 0.00047441304 -0.035722952 0.018173767 -0.008351374 -0.0009819014 -0.07363025 -0.064679556
-0.04016875 -0.11742024 -0.0035379378 0.16213723 -0.010366905 -0.058567148 0.010287673 0.031145021
-0.10938508 -0.021570139 0.13337506 -0.12498751 0.0056894105 -0.0040037576 -0.045835983 -0.1814078
-0.14103863 -0.054104622 0.14355004 -0.011055347 0.033489943 -0.01987112 0.11059484 0.0070566903
-0.13601348 -0.088592336 -0.07886028 -0.0011426094 0.17412966 -0.0804139 0.017332973 0.011416191
-0.09289149 -0.050060388 -0.0021980312 -0.054095343 0.007260568 0.041782714 0.005617154 0.12779272
0.19047357 0.11007765 -0.078134425 -0.07019761 -0.049415026 0.0680174 -0.022277826 0.10952941
0.11648282 0.017426526 0.03602289 -0.052397963 0.08994158 0.02483196 -0.036182594 -0.03701417
0.018844703 -0.003551339 -0.014689893 -0.031388126 -0.03443218 -0.048380494 -0.07686127 -0.09819399
00000000: ac9d 253d f23c e63c 115e 8a3c 1f0e 1bbd
00000010: 0d69 2ebe 9da4 a6bc dda5 d43c f228 6f3d
00000020: 0b5f 343d d33f 8abb 043a 883d 6724 f6bd
00000030: 8466 6b3b 1828 003e 5160 9cbd e322 aabd
00000040: bfbe f6bd e37f 173e c841 03bc 799b 78bd
00000050: fa48 ea3c ad29 4c3d a43f 693d 635d 27be
00000060: 61f1 633d a9e8 f7bc 44cb dcbc ff8b d03c
00000070: 1f7b dc3d c2f1 a7bd 70b0 d1bd 60d9 9bbc
00000080: d8d8 0dbd c36e 9abd 53a5 a9bc d288 5a3d
00000090: 685c 03bd 48c4 c83c c683 7bbb 99f1 003d
000000a0: b89f 9f3c 4cc9 923c e73d 383d 7adc 803c
000000b0: aa3a 023d 81c4 573c a31f ae3c 4a67 133d
000000c0: 0408 2c3d 072a bf3b fd46 493d c7b9 a03b
000000d0: 0d65 82bd fa36 6abd 86ab 79bd 1b2a c1bd
000000e0: 73af 7d3b 38bc 203e 1f08 1ebd 8f39 85bd
000000f0: 7c25 a3bc 218e b63a 54ef 10be 3b01 85bb
00000100: eb3e b6bb b7f7 f73d 3ad0 4d3e 937b 923c
00000110: 8f39 02bd 4ba2 4c3d 706b febc 8837 483d
00000120: c82f 4d3d 685d 463d f1a9 a03d b4c6 2c3e
00000130: 5a04 f8bc a2ab 873d b835 c7bd aeb6 873d
00000140: 08e4 0b3e 889d 213e 7368 583d 6793 5ebd
00000150: 9508 96bd 4141 af3c e003 0bbe d178 e8bc
00000160: c5fe 02be 3bc0 7f3c 7c28 8c3d 8a64 993a
00000170: df1f 6aba 3ab6 85bd c14d 23bc 2eaa c23b
00000180: 0c5a b63d 2c5d 0bbe f56d c13c 1152 273d
00000190: 303b 15bd 4eaa a5bd c28b 54bd f5eb bf3c
000001a0: 2dc0 653b 1bb5 0cbd f4fd dfbd da24 d1bd
000001b0: 1216 ea37 eb79 4e3e b14f d93d c0fe 39bd
000001c0: 77cd 1bbd 9140 84bd 0f1f b2bd 1535 463b
000001d0: bfc9 41bc 5428 d23c 283a b53c 1739 13bd
000001e0: 95c6 4a3d 4b4c ddbc 5310 15bc 363a dd3b
000001f0: 1a88 7c3d c99d eb3d d4ee 53bd 5ebf eabc
00000200: 0fff 2dbd b002 d83d b521 a73c 60e9 d9bd
00000210: 66ab 833d ec7a 12bd 119c 253d 57e4 5bbc
00000220: 6a69 533d 358c 05bc 1896 d7bd a8eb 1bbd
00000230: da07 4bbd b739 cbbd b1d3 533d 1f45 963d
00000240: 8e9d 053d f55a 13bc b728 da3d fc14 7a3d
00000250: 9419 c63d 2a99 b53c 41e2 9abd 3706 99bc
00000260: b28b 50bd f223 043d 7496 493c 3f03 b33c
00000270: 2508 113d ba8c ec3c e192 013d 6d03 f23c
00000280: 3565 ad3d 008a 093c 5bd4 573d 5424 46bd
00000290: 1f10 24bd 56b8 423a 358f f03c ed5e e13c
000002a0: 7e2e a93c 5740 fe3d f051 673d 5a33 dfbc
000002b0: 1938 a1bc 4ada a4bc af10 f0bc f150 3fbd
000002c0: b1eb 873d c5f4 c0bd 243a 213c 3c9d 173c
000002d0: a04d ca3d 4314 46bd 1970 0abe a447 91bd
000002e0: 250c 053e a4ba f839 3b52 12bd 27e1 943c
000002f0: 34d4 08bc 25b3 80ba 75cb 96bd b776 84bd
00000300: fd87 24bd 067a f0bd bfdc 67bb 4d07 263e
00000310: f3d9 29bc 1be4 6fbd a18d 283c d823 ff3c
00000320: 4905 e0bd dcb3 b0bc 7993 083e 74f9 ffbd
00000330: 3c6e ba3b f431 83bb 83be 3bbd f7c2 39be
00000340: 6e6c 10be cf9c 5dbd c8fe 123e 7c21 35bc
00000350: c02c 093d c2c8 a2bc 8c7f e23d cf3b e73b
00000360: 1e47 0bbe e66f b5bd 8081 a1bd 9cc3 95ba
00000370: 0c4f 323e 0bb0 a4bd e1fd 8d3c fa0a 3b3c
00000380: e53d bebd 1f0c 4dbd d80c 10bb 1493 5dbd
00000390: 0fea ed3b 5a24 2b3d 1a10 b83b 18dc 023e
000003a0: 810b 433e 6470 e13d f104 a0bd c4c3 8fbd
000003b0: 6967 4abd b54c 8b3d fd7f b6bc f550 e03d
000003c0: 8b8e ee3d 13c2 8e3c bd8c 133d 3f9f 56bd
000003d0: 4b33 b83d 656c cb3c 3334 14bd 2c9c 17bd
000003e0: 3560 9a3c 95bd 68bb e1ad 70bc d690 00bd
000003f0: c208 0dbd a02a 46bd 7169 9dbd ee19 c9bd

module.conv2.convolution.bias f4 [32]
0.08502041 0.13207336 0.061674915 0.06825364 0.0025142615 0.061352745 0.01815835 -0.0012204556
0.03247758 0.0420573 0.07707462 0.06607686 0.06691937 0.07335231 0.06606614 0.033386827
0.03732303 0.0075263246 -0.0025910793 0.050759632 0.020887462 0.020030439 0.07717365 0.06554124
0.0019301041 0.08534306 0.06784006 0.08980435 0.07399941 0.05264806 0.005866818 0.03868571
00000000: 2e1f ae3d 3d3e 073e d69e 7c3d 90c8 8b3d
00000010: 4fc6 243b 044d 7b3d d2c0 943c b2f7 9fba
00000020: 3607 053d 4744 2c3d 4cd9 9d3d 4e53 873d
00000030: 060d 893d bc39 963d af4d 873d a0c0 083d
00000040: 09e0 183d 639f f63b 19cf 29bb 55e9 4f3d
00000050: 2f1c ab3c e016 a43c 380d 9e3d 7c3a 863d
00000060: 8cfb fc3a 58c8 ae3d bbef 8a3d 58eb b73d
00000070: 018d 973d 7ea5 573d 703e c03b e874 1e3d

module.conv3.convolution.weight f4 [64, 32, 13]
0.011505014 0.14775315 -0.021350795 -0.08655208 -0.054204352 0.10967913 0.026737502 -0.045221653
-0.0363218 -0.005356414 0.081215344 0.054549783 0.021320721 0.015579162 -0.0008456112 0.0068151955
-0.009662895 0.19011974 -0.10537668 -0.035776824 0.02871378 -0.017025014 -0.0839277 -0.089008264
-0.113680616 -0.035932798 0.0072531174 0.0029909762 -0.00037485122 0.0012212628 -0.00043296345 0.0015200528
-0.0016758248 -0.0026198342 -0.0019149103 0.00054735626 -0.002449284 0.0022675917 0.0026443584 -0.02339306
0.01312003 0.065271065 0.034006383 0.07439423 -0.025918128 -0.0033584333 0.01526508 -0.028863722
0.023553934 0.006404393 -0.07335981 -0.05653203 -6.675679e-05 -8.92972e-05 -7.3996096e-05 -2.164359e-05
-7.3766205e-05 -4.3211247e-05 -0.00013717689 -6.380439e-05 -9.734787e-05 -0.00015180731 -0.00015622405 3.4170345e-05
3.451568e-05 0.020278685 0.013065603 0.011031249 -0.0059564863 0.0076311966 0.029090058 0.020080632
-0.014302193 -0.009867341 -0.00015918247 0.0024706856 0.031671494 0.033347927 -0.05051533 -0.014527455
0.018036416 0.011794714 -0.013816339 -0.02219022 -0.026649205 -0.0075241085 -0.017293783 0.004675888
0.019462215 0.0011004299 -0.0034620713 -1.73712e-40 -5.26225e-40 2.10852e-40 3.52868e-40 2.8564e-41
3.9035e-41 1.1060146e-29 -3.06772e-40 2.659529e-25 -1.5085e-41 -1.2086e-41 -4.07917e-40 -9.7053e-41
-0.0010293943 -0.0013062679 -0.0027789115 -0.0017227128 -0.0013434552 -0.0010392563 -0.0021746717 -0.00020760439
-0.001185117 -0.001297622 -0.001477633 0.0022908144 0.002419234 0.0009715046 0.0012789066 0.0007029434
-0.0007120742 -0.0006288405 -0.00023405439 -0.00045556205 0.000566322 0.00061987387 0.0019917786 0.0023740502
0.0035106298 0.0033169936 0.062135726 0.0067599514 0.057324797 0.012363313 0.0006214619 0.008322977
0.035133064 -0.0017244382 -0.021505907 0.020175688 -0.020365538 0.0072843703 0.00849981 0.009997931
0.013720537 0.011553372 -0.0035573754 -0.0016914195 0.021745598 0.012228367 -0.00704333 -0.014408412
-0.015689759 -0.008615403 -0.00049736927 -0.0023321586 0.0011105444 -0.0049902447 -0.012027306 -0.0040015224
-0.00786983 -0.0049887374 0.0032547242 0.0008742416 -0.0020584138 -0.009913833 0.005448135 0.012271536
0.015819257 0.0024126894 -0.050369523 -0.011998056 -0.026185026 -0.02540962 -0.042678833 -0.044395193
-0.09423235 -0.032686833 -0.005222643 -0.010563566 0.0019016551 -0.04840962 0.016900154 -0.0055655213
-0.055321835 -0.021642394 -0.0077176057 -0.035947427 -0.024808941 -0.026703587 0.0021454522 -0.032888062
-0.04070818 0.03054353 -0.034377903 -0.00021669894 -0.0011696477 -0.0003332861 0.0003434696 0.0001778716
-0.00032963813 -0.0005485411 0.0005798628 0.0010712506 0.0008675323 0.000571376 0.0011655152 0.001217107
0.0017253228 -0.0006816107 -0.0006316745 -0.00084362907 0.0008362981 0.00022735183 -0.00019639447 -0.00023836747
-0.00016829096 -0.00026605933 0.00010323238 -0.00035410986 -5.686679e-05 6.137768e-05 2.5341837e-05 0.00011524113
9.0071786e-05 7.584098e-05 -1.47281025e-05 -0.000110672016 4.9649585e-05 4.906739e-05 -7.2609066e-05 -7.3437313e-06
0.00026154928 0.00019528669 4.8484115e-09 4.5183226e-09 3.7508414e-09 7.2393824e-09 3.6061645e-09 2.6215972e-09
2.3265418e-09 1.002025e-09 2.3537656e-09 2.2369033e-09 2.834363e-09 4.3807185e-09 1.7834547e-09 -0.00043140491
-0.0042023463 -0.009895475 -0.0045517636 0.00083574787 -0.00035155943 -0.0018609144 -0.002428984 -0.0019937095
00000000: 877f 3c3c 9a4c 173e dde7 aebc 3842 b1bd
00000010: 6205 5ebd 749f e03d 9b08 db3c 573a 39bd
00000020: 2bc6 14bd db84 afbb 3b54 a63d 986f 5f3d
00000030: cba8 ae3c be3f 7f3c 02ac 5dba 0152 df3b
00000040: 1f51 1ebc c0ae 423e bbcf d7bd b88a 12bd
00000050: 2939 eb3c 0b78 8bbc 49e2 abbd f749 b6bd
00000060: 62d1 e8bd 452e 13bd 8fab ed3b 4104 443b
00000070: ae87 c4b9 c812 a03a 5fff e2b9 823c c73a
00000080: 59a7 dbba 86b1 2bbb bafd faba 757c 0f3a
00000090: 2b84 20bb e09b 143b f94c 2d3b cda2 bfbc
000000a0: 65f5 563c d6ac 853d 474a 0b3d 015c 983d
000000b0: 4152 d4bc 2919 5cbb 631a 7a3c 9d73 ecbc
000000c0: 2ef4 c03c f1db d13b ab3d 96bd 218e 67bd
000000d0: c7ff 8bb8 1245 bbb8 5a2e 9bb8 418f b5b7
000000e0: eeb2 9ab8 b93d 35b8 24d7 0fb9 b9ce 85b8
000000f0: 3d27 ccb8 772e 1fb9 13d0 23b9 2152 0f38
00000100: eec4 1038 7c1f a63c 1c11 563c 69bc 343c
00000110: a12e c3bb 1e0f fa3b 464e ee3c 2380 a43c
00000120: bf53 6abc a1aa 21bc 38ea 26b9 3aeb 213b
00000130: f8b9 013d d697 083d 2ae9 4ebd 9004 6ebc
00000140: 1bc1 933c 9e3e 413c ed5d 62bc 44c8 b5bc
00000150: 6f4f dabc cc8c f6bb b1ab 8dbc 3138 993b
00000160: 396f 9f3c 4d3c 903a ebe3 62bb 3de4 0180
00000170: e7ba 0580 c54b 0200 a7d7 0300 a04f 0000
00000180: d06c 0000 9053 600f 2857 0380 eb9d a416
00000190: 0d2a 0080 b121 0080 1b71 0480 8b0e 0180
000001a0: beec 86ba 1437 abba 661e 36bb a6cc e1ba
000001b0: e016 b0ba a837 88ba f084 0ebb 61b0 59b9
000001c0: ee55 9bba f814 aaba 23ad c1ba 7d21 163b
000001d0: 038c 1e3b 92ac 7e3a fca0 a73a bc45 383a
000001e0: 7eaa 3aba c6d8 24ba 7f6c 75b9 81d8 eeb9
000001f0: 3a75 143a 087f 223a 8088 023b f495 1b3b
00000200: 9812 663b eb61 593b 0882 7e3d 9582 dd3b
00000210: 68cd 6a3d 7e8f 4a3c 9ae9 223a 195d 083c
00000220: b0e7 0f3d 8b06 e2ba 282d b0bc 7c47 a53c
00000230: a1d5 a6bc bab1 ee3b c942 0b3c 5dce 233c
00000240: 1acc 603c 5b4a 3d3c db22 69bb 9fb2 ddba
00000250: d323 b23c 7d59 483c bccb e6bb 4311 6cbc
00000260: cf87 80bc 9f27 0dbc e361 02ba 21d7 18bb
00000270: b08f 913a 3585 a3bb 2d0e 45bc 341f 83bb
00000280: 76f0 00bc 9078 a3bb 364d 553b 5c2d 653a
00000290: 74e6 06bb a16d 22bc 4586 b23b 8d0e 493c
000002a0: 6397 813c 361e 1e3b 4650 4ebd 7f93 44bc
000002b0: fb81 d6bc d627 d0bc 00d0 2ebd bcd7 35bd
000002c0: e4fc c0bd a1e2 05bd b422 abbb cf12 2dbc
000002d0: f540 f93a 2a49 46bd 3172 8a3c fa5e b6bb
000002e0: 2699 62bd 644b b1bc f8e3 fcbb 9c3d 13bd
000002f0: 1f3c cbbc 7bc1 dabc b79a 0c3b a2b5 06bd
00000300: 9fbd 26bd 6d36 fa3c d8cf 0cbd ae39 63b9
00000310: dd4e 99ba e7bc aeb9 b613 b439 0b83 3a39
00000320: 48d3 acb9 f8cb 0fba ef01 183a 3569 8c3a
00000330: 1b6b 633a 65c8 153a 33c4 983a 5687 9f3a
00000340: 3a24 e23a 1fae 32ba f596 25ba fd26 5dba
00000350: 043b 5b3a 4b65 6e39 3def 4db9 48f2 79b9
00000360: 4377 30b9 e17d 8bb9 767e d838 d2a7 b9b9
00000370: 4084 6eb8 e4b7 8038 2e95 d437 9cad f138
00000380: ece4 bc38 d10c 9f38 b818 77b7 9618 e8b8
00000390: d63e 5038 b5cd 4d38 b245 98b8 2c6a f6b6
000003a0: 8d20 8939 dfc5 4c39 1497 a631 963f 9b31
000003b0: c0e0 8031 48be f831 51d0 7731 a027 3431
000003c0: f5e0 1f31 9fb7 8930 e2bf 2131 05b8 1931
000003d0: a4c6 4231 3585 9631 bc1d f530 302e e2b9
000003e0: d6b3 89bb a120 22bc f626 95bb 1716 5b3a
000003f0: 8251 b8b9 ede9 f3ba 972f 1fbb e5a8 02bb

module.conv3.convolution.bias f4 [64]
0.09206143 0.08134595 0.06263812 0.04023203 0.05521556 0.07789095 -7.490182e-07 0.0144736795
0.06882979 -6.8463384e-36 0.07712722 0.032406647 0.034326836 0.07211844 0.09115521 0.06864797
0.06605311 0.06941807 0.060350582 0.01644248 0.03731433 0.061110966 0.080602214 0.048117343
0.035317197 -0.035963256 0.06479483 0.038270783 0.0811766 0.076508865 0.0013526378 0.05226757
0.053242456 0.06873318 0.040836517 0.054193962 0.062068336 0.054583345 0.075594135 0.055467185
0.14116357 -0.00010440519 0.06933474 0.09324549 0.079749286 0.074111685 0.087765895 0.02633465
0.023860019 0.05874361 0.08833045 0.06489905 0.06413741 0.057523783 0.08043123 0.0015743261
0.060551513 0.07833463 0.06264314 0.045246188 0.04763673 0.10636293 0.06537192 0.07220548
00000000: b48a bc3d b598 a63d 6a48 803d 57ca 243d
00000010: b629 623d 4a85 9f3d 2410 49b5 0323 6d3c
00000020: a2f6 8c3d 039b 1185 e0f4 9d3d d5bc 043d
00000030: 4c9a 0c3d d5b2 933d 95af ba3d 4f97 8c3d
00000040: da46 873d 102b 8e3d 2c32 773d 61b2 863c
00000050: e9d6 183d 7e4f 7a3d c612 a53d b116 453d
00000060: c4a8 103d 354e 13bd 27b3 843d d3c1 1c3d
00000070: eb3f a63d aeb0 9c3d fe4a b13a 8516 563d
00000080: c314 5a3d fbc3 8c3d 3144 273d 7dfa 5d3d
00000090: 5e3b 7e3d c992 5f3d 19d1 9a3d 8f31 633d
000000a0: 2f8d 103e 1cf4 dab8 5fff 8d3d 7ef7 be3d
000000b0: 9853 a33d dec7 973d 9bbe b33d c4bb d73c
000000c0: 1676 c33c 249d 703d 98e6 b43d cbe9 843d
000000d0: 795a 833d 0f9e 6b3d 21b9 a43d 9e59 ce3a
000000e0: dd04 783d e86d a03d 0c4b 803d 1154 393d
000000f0: bb1e 433d cfd4 d93d b7e1 853d 77e0 933d

module.conv4.convolution.weight f4 [64, 64, 13]
-0.0076867314 -0.029816417 -0.06216733 -0.06494996 0.024873199 0.059179507 -0.06776796 0.0072530294
-0.008113888 0.032501884 0.022910677 0.04929056 0.043446485 -0.015143172 0.09560737 0.049424436
-0.028927656 -0.017899193 0.009282541 0.026102161 0.028317915 -0.04857487 0.0716071 0.00451119
-0.029981744 0.0042376188 0.016426886 0.016471433 0.062498644 -0.030050201 0.005513923 0.05855805
-0.036951825 0.0072776354 0.030695735 0.040230654 0.010691672 -0.052758202 -0.0124355825 -0.029311532
0.009356912 0.0059470097 0.0022194812 0.025047973 -0.013431569 0.0067775436 -0.0014617875 -0.0045194877
-0.0048473827 0.011699112 0.023452396 -0.018092588 0.0028643413 0.0049065244 0.0017683881 0.0037891162
0.0037199403 -0.0037839336 0.0013520737 0.0006968415 0.00667665 0.0067776605 0.00957227 0.008792195
0.011821055 0.0142265605 0.090946764 -0.024492133 -0.041573614 0.08271066 -0.07358271 -0.029248198
-0.10264494 -0.069304116 -0.05041464 0.076597966 0.056325074 -0.08527594 -3.03216e-40 -1.4482e-40
2.4286e-41 -1.78e-41 1.16128e-40 -1.7974e-40 5.91276e-40 -6.12665e-40 -1.07147e-40 -5.4401e-40
-4.50604e-40 -3.17634e-40 -8.2971e-41 -0.055719726 -0.115776196 0.078770176 0.0031711133 0.070615046
0.023409743 -0.01643466 -0.09429889 0.0044292654 -0.024802359 -0.033851847 0.03443616 0.042821642
-0.0040152124 0.01471748 0.010894732 -0.0071411193 0.006694176 0.01096672 0.0069896276 0.010301894
0.009797083 0.0036917261 7.735684e-05 0.0055496823 0.014293741 4.289561e-37 1.7675739e-37 5.799952e-38
-3.5567685e-38 -4.6223492e-38 -9.48557e-38 -1.1519259e-37 -1.5957249e-37 -1.1198194e-37 -7.3511226e-38 3.465127e-38
5.848767e-38 1.2778519e-37 -0.014269714 -0.031143896 -0.029137041 -0.023485288 -0.030645015 0.0057477853
0.04167073 -0.00795117 0.018365864 0.06708757 0.017074922 0.017128706 -0.018959742 0.054302838
0.059474815 -0.08197883 -0.037890628 0.09852098 -0.017804127 -0.08017279 0.033340987 0.020805532
0.01637716 -0.04751423 0.009536062 -0.030471293 0.0010459336 -0.0003138899 0.00037954634 0.00085845916
-0.0012889834 -0.0003915006 0.00064935104 0.0005324424 -0.0005332445 -0.000364169 -0.00046482758 -0.00059901725
0.0009928395 -0.0122242225 0.034956962 -0.029044567 0.002973976 0.011790041 -0.018713467 0.026724193
0.010055395 0.00605154 -0.009558993 -0.014796786 -0.017267855 -0.0058444547 -0.0033181666 0.032574747
0.030056853 -0.0321026 0.034349203 0.037985716 0.0014937785 -0.00798293 0.025217608 0.0002804031
0.0058957157 0.015670449 0.06201717 -0.026688775 -0.040255245 0.005481705 -0.0029310028 -0.008678801
0.053111244 0.016674684 -0.011449529 0.0016136148 -0.0055861534 0.0010085588 -0.006756609 0.048980646
0.05515469 -0.08348992 -0.018047957 0.050246608 0.03330379 -0.050430812 0.02183595 0.0454094
0.009394385 -0.0069367155 -0.003232515 0.019609328 0.03615095 0.18975057 0.096371904 -0.087114185
-0.036748208 0.036798567 -0.13085134 -0.11852602 -0.034501553 -0.07938617 -0.0010389315 0.041660212
-0.04288248 -0.010220825 0.060160436 -0.06412297 0.08888631 0.013606058 -0.028837087 0.038800415
0.0024823055 0.0446882 -0.007890526 -0.0038387093 0.020825053 -0.013610034 0.017963827 0.009527859
-0.0039496613 0.016994659 -0.017975062 -0.010493442 -0.0050228112 -0.014325516 0.0021755875 -0.003327043
00000000: fae0 fbbb 8f41 f4bc 2ca3 7ebd 7c04 85bd
00000010: e1c2 cb3c 3666 723d eec9 8abd d2aa ed3b
00000020: 1df0 04bc b220 053d 2caf bb3c e6e4 493d
00000030: f1f4 313d 111b 78bc cccd c33d 4771 4a3d
00000040: b1f9 ecbc 54a1 92bc cd15 183c 33d4 d53c
00000050: f9fa e73c 71f6 46bd bea6 923d 9bd2 933b
00000060: 469c f5bc b9db 8a3b ad91 863c 19ef 863c
00000070: 94fe 7f3d d72b f6bc 23ae b43b 91da 6f3d
00000080: cc5a 17bd 3b79 ee3b 9f75 fb3c e6c8 243d
00000090: 1f2c 2f3c fc18 58bd 9dbe 4bbc bd1e f0bc
000000a0: bc4d 193c 22df c23b b774 113b 6831 cd3c
000000b0: 1510 5cbc 2816 de3b 7399 bfba 3618 94bb
000000c0: cbd6 9ebb a2ad 3f3c 3d1f c03c e836 94bc
000000d0: acb7 3b3b e9c6 a03b 42c9 e73a d252 783b
000000e0: 3eca 733b dffb 77bb 1138 b13a 3eac 363a
000000f0: cdc7 da3b 2317 de3b 03d5 1c3c 230d 103c
00000100: 19ad 413c 8516 693c 4c42 ba3d baa3 c8bc
00000110: 1849 2abd 3564 a93d 88b2 96bd eb99 efbc
00000120: 8337 d2bd 51ef 8dbd 957f 4ebd 65df 9c3d
00000130: 1fb5 663d 27a5 aebd 3e4d 0380 b393 0180
00000140: b343 0000 9f31 0080 b843 0100 0bf5 0180
00000150: 3d70 0600 dcab 0680 af2a 0180 7bec 0580
00000160: 1ae8 0480 6f75 0380 4ae7 0080 5e3a 64bd
00000170: 121c edbd 4252 a13d 74d2 4f3b 9f9e 903d
00000180: cac5 bf3c fba1 86bc c71f c1bd 5f23 913b
00000190: 512e cbbc 3ca8 0abd ee0c 0d3d bf65 2f3d
000001a0: 0b92 83bb 9621 713c d17f 323c 0d00 eabb
000001b0: d15a db3b c2ad 333c 3f09 e53b 46c9 283c
000001c0: f283 203c e3f0 713b a33a a238 1cda b53b
000001d0: 4c30 6a3c 59f7 1103 f696 7002 c4e3 9d01
000001e0: 1ea6 4181 25aa 7b81 631c 0182 c2ca 1c82
000001f0: e632 5982 036c 1882 d91d c881 d2a8 3c01
00000200: f537 9f01 a4ee 2d02 85cb 69bc 7c21 ffbc
00000210: ceb0 eebc 3864 c0bc 410b fbbc eb57 bc3b
00000220: edae 2a3d a045 02bc 0274 963c 3565 893d
00000230: b5e0 8b3c 8051 8c3c 7651 9bbc a76c 5e3d
00000240: dd9b 733d 84e4 a7bd 3433 1bbd 5ec5 c93d
00000250: f6d9 91bc a231 a4bd 8f90 083d 5d70 aa3c
00000260: 6529 863c 489e 42bd 253d 1c3c ef9e f9bc
00000270: b517 893a 9791 a4b9 d9fd c639 380a 613a
00000280: 1bf3 a8ba 5242 cdb9 3639 2a3a 9b93 0b3a
00000290: 6fc9 0bba f0ed beb9 1ab4 f3b9 5e07 1dba
000002a0: 2a22 823a 1b48 48bc 082f 0f3d dfee edbc
000002b0: 0ae7 423b 042b 413c fc4c 99bc b2ec da3c
000002c0: 62bf 243c ff4b c63b 539d 1cbc 386e 72bc
000002d0: 5175 8dbc d782 bfbb 9975 59bb 196d 053d
000002e0: ca39 f63c 047e 03bd c0b1 0c3d e996 1b3d
000002f0: e4ca c33a d6ca 02bc 2895 ce3c 1103 9339
00000300: d930 c13b 505f 803c b705 7e3d 6ba2 dabc
00000310: afe2 24bd e09f b33b 1116 40bb 8831 0ebc
00000320: 2d8b 593d 5999 883c ce96 3bbc ee7f d33a
00000330: 0d0c b7bb 9e31 843a 8b66 ddbb ee9f 483d
00000340: e2e9 613d c3fc aabd 4fd9 93bc 63cf 4d3d
00000350: 8e69 083d 8a90 4ebd 4ee1 b23c 35ff 393d
00000360: e8ea 193c 634d e3bb 9ad8 53bb bea3 a03c
00000370: 0513 143d f94d 423e a25e c53d ec68 b2bd
00000380: 4a85 16bd 18ba 163d e5fd 05be c5bd f2bd
00000390: 8051 0dbd 3795 a2bd c22c 88ba e6a3 2a3d
000003a0: 8aa5 2fbd 3f75 27bc ca6a 763d e752 83bd
000003b0: 070a b63d f2eb 5e3c c13b ecbc 2fed 1e3d
000003c0: 2dae 223b f90a 373d 4447 01bc db92 7bbb
000003d0: 4d99 aa3c 9ffc 5ebc e028 933c bd1a 1c3c
000003e0: 296c 81bb 6238 8b3c 7040 93bc b0ec 2bbc
000003f0: 6596 a4bb 92b5 6abc 4d94 0e3b 850a 5abb

module.conv4.convolution.bias f4 [64]
0.08338465 0.06901952 0.104045846 0.064458415 0.07907599 0.098810226 0.060983427 0.087543204
0.12143796 0.029738616 0.014277039 0.04426137 0.08995666 0.04018521 -0.0036613669 0.058823533
-1.4018756e-12 0.024016256 -0.020228533 0.07179049 0.04660295 0.035768606 -3.5028481e-06 0.05960342
-3.8651746e-05 -1.9152036e-09 0.003323869 -1.140557e-16 0.025632963 -0.018661948 0.043136403 0.047497734
0.072364375 0.029150251 -3.4108755e-25 -0.003148943 0.05246616 0.027083492 0.0537267 0.05244917
0.03803196 -0.01327809 0.09469401 0.08387245 0.07224289 0.057609703 0.075678095 0.04488106
0.07573465 -0.003090797 0.016808037 0.09968178 0.0336919 0.04775036 0.016543668 0.09845917
0.04945545 0.050518837 0.054057058 -0.0014679396 0.05571285 -0.006046086 0.1011801 0.011199677
00000000: 92c5 aa3d 1b5a 8d3d fd15 d53d c602 843d
00000010: 98f2 a13d 045d ca3d c2c9 793d da49 b33d
00000020: 77b4 f83d 669e f33c 3eea 693c 694b 353d
00000030: 333b b83d 3f99 243d 8bf3 6fbb f2f0 703d
00000040: e44b c5ab bdbd c43c 4fb6 a5bc e406 933d
00000050: bce2 3e3d 1a82 123d 7912 6bb6 b722 743d
00000060: ff1d 22b8 9e9c 03b1 45d5 593b 4d7f 03a5
00000070: 38fc d13c f1e0 98bc ccaf 303d fc8c 423d
00000080: c633 943d 82cc ee3c 7b1f d396 7f5e 4ebb
00000090: c2e6 563d 33de dd3c 8710 5c3d f1d4 563d
000000a0: 67c7 1b3d 598c 59bc efee c13d 52c5 ab3d
000000b0: 15f4 933d 27f8 6b3d 1efd 9a3d 34d5 373d
000000c0: c51a 9b3d f88e 4abb 02b1 893c f625 cc3d
000000d0: 8500 0a3d e295 433d 9686 873c f6a4 c93d
000000e0: cc91 4a3d d7ec 4e3d ef6a 5d3d e167 c0ba
000000f0: 2833 643d 3f1e c6bb 8337 cf3d da7e 373c

module.fc.linear.weight f4 [32, 4096]
0.0005352162 0.039147057 0.04811249 0.009212501 -0.019316215 -0.011002155 0.014939274 0.016091844
0.01237108 -0.018647945 -0.061259784 0.07929911 0.070324026 0.011476615 -0.047474407 0.03545789
-0.028365534 0.15419655 0.12918821 -0.006086138 -0.024093736 -0.018799115 -0.0008310009 -0.023040516
0.07364014 -0.033186883 -0.009418836 -0.068495646 0.10007978 0.020249592 0.122258924 0.044004455
-0.032575767 -0.004129749 0.005702979 0.0014114025 0.059914105 -0.05800083 0.055893805 0.04909002
0.075605005 -0.024266344 -0.109342806 -0.1420053 -0.027817776 -0.07593664 0.049375895 0.0013401336
0.010353251 -0.021664979 -0.054737683 -0.071487635 0.0057359254 -0.08454246 0.032343738 0.04322322
0.047558937 -0.020396976 0.00069737656 -0.043958936 0.02700813 -0.009725255 0.038818438 0.021336954
0.005339081 0.006439317 -0.011977406 -0.013130337 -0.017584477 0.011235992 0.03133357 -0.064116985
0.019807737 0.040135898 -0.01647498 -0.10872889 0.070459254 -0.0085684 0.0057833577 -0.06514239
-0.11192431 -0.069333 -0.016880756 0.034552444 -0.04594874 0.0059965397 0.030662434 -0.027906096
-0.037981443 0.059827585 -0.0020023389 -0.00190625 -0.03845732 -0.012154302 -0.027386999 0.010165769
0.05840358 0.020974861 0.016331488 -0.02407845 -0.024097325 -0.0098225055 0.03686633 0.047878362
0.045165762 -0.016940694 -0.016461682 -0.004725783 0.021097004 -0.010824119 0.012604199 0.029068664
0.04088399 0.002972846 0.0053579938 0.002366967 -0.0032494226 -0.036530394 0.013731219 0.039831728
0.06525078 -0.035960585 -0.030925179 0.026083402 0.015773874 -0.0038232263 0.010150518 -0.020590108
0.039472636 -0.0014530643 -0.01595688 -0.010151085 -0.06851641 0.050809696 -0.10880358 -0.01708615
-0.025255676 0.09302227 -0.023812016 -0.04684597 0.025784975 0.013755006 -0.09556058 -0.020311242
0.066320606 0.02121142 0.11021638 0.015569957 0.08250323 -0.002939788 -0.050082438 -0.12885635
0.0557717 -0.01298407 0.04571815 -0.018497868 0.032196593 0.018185848 0.11522326 -0.042996265
0.06812706 -0.00598641 0.15472011 0.07732997 0.07359144 -0.002123306 0.042191938 -0.0077919704
-0.022667745 -0.075821035 0.060409326 0.06419654 -0.012184529 0.0246375 -0.0193004 -0.024394237
-0.0062750946 -0.058680866 0.041918162 0.048880566 -0.016815992 0.0009981025 -0.005966056 0.061146505
-0.08470969 -0.030864974 -0.087738454 -0.014544429 0.04251935 -0.020686397 0.13578032 -0.026252236
-0.0015392225 0.002043475 0.020663703 0.10109676 -0.11632949 -0.021864917 -0.08266479 -0.10475138
0.00525142 -0.037948962 0.06708241 -0.030152524 0.018384349 0.015325006 0.15313523 -0.22938074
-0.033130247 -0.08937943 -0.04419015 0.017862549 0.018393222 -0.017188622 -0.11148783 -0.063899584
0.06114749 -0.11343203 0.00094930653 0.034715865 -0.077868894 -0.08940563 -0.007034237 0.038005408
0.04234864 0.11776292 -0.026923208 -0.0042200135 0.017756103 -0.09510401 0.019883325 0.034211513
-0.08549313 0.0012489355 -0.04374762 0.23561391 0.034182876 -0.006630833 -0.049918927 0.045178093
0.06544668 -0.13887335 -0.049964253 -0.045855753 0.10825225 -0.041394114 -0.01464071 -0.0018864559
-0.022148333 0.05903074 -0.04295213 -0.013479789 0.012296409 0.05107137 -0.034962393 0.026814455
00000000: c04d 0c3a aa58 203d 9a11 453d 08f0 163c
00000010: 0a3d 9ebc 6242 34bc dbc3 743c 0bd3 833c
00000020: 12b0 4a3c 93c3 98bc 8aeb 7abd 9267 a23d
00000030: 0b06 903d 6a08 3c3c 8674 42bd 4b3c 113d
00000040: d65e e8bc b3e5 1d3e ea49 043e 3a6e c7bb
00000050: 3a60 c5bc 9a00 9abc 87d7 59ba 77bf bcbc
00000060: a4d0 963d f8ee 07bd 7651 1abc 7247 8cbd
00000070: a1f6 cc3d 79e2 a53c e362 fa3d 043e 343d
00000080: 2b6e 05bd d852 87bb 0ee0 ba3b cffe b83a
00000090: 7e68 753d 4792 6dbd e7f0 643d 9e12 493d
000000a0: ccd6 9a3d 36ca c6bc 1fef dfbd d669 11be
000000b0: 1be2 e3bc ab84 9bbd 613e 4a3d 6ca7 af3a
000000c0: afa0 293c c17a b1bc 9f34 60bd 1c68 92bd
000000d0: 6ef4 bb3b 9924 adbd de7a 043d d50a 313d
000000e0: 29cd 423d 8f17 a7bc 26d0 363a 490e 34bd
000000f0: 2740 dd3c ad56 1fbc 1500 1f3d d6ca ae3c
00000100: 75f3 ae3b e800 d33b e23c 44bc a020 57bc
00000110: 520d 90bc 2b17 383c a157 003d c44f 83bd
00000120: d643 a23c 8a65 243d 8af6 86bc 41ad debd
00000130: f14c 903d 7962 0cbc 5282 bd3b 6069 85bd
00000140: 9338 e5bd 76fe 8dbd 8349 8abc dd86 0d3d
00000150: bf34 3cbd 9f7e c43b c92f fb3c 539b e4bc
00000160: 6e92 1bbd c50d 753d ac39 03bb 23db f9ba
00000170: 6c85 1dbd d622 47bc b35a e0bc 538e 263c
00000180: 9838 6f3d 79d3 ab3c 9dc9 853c 2b40 c5bc
00000190: c167 c5bc 93ee 20bc 2601 173d 1a1c 443d
000001a0: bcff 383d 36c7 8abc a6da 86bc beda 9abb
000001b0: a0d3 ac3c a557 31bc d881 4e3c 6821 ee3c
000001c0: f875 273d 14d4 423b 1c92 af3b 1e1f 1b3b
000001d0: 44f4 54bb e5a0 15bd e8f8 603c 9826 233d
000001e0: 33a2 853d 684b 13bd cd56 fdbc dcac d53c
000001f0: 3638 813c 188f 7abb 5c4e 263c 96ac a8bc
00000200: 0fae 213d bf74 beba 01b8 82bc bd50 26bc
00000210: 5552 8cbd d41d 503d 69d4 debd 41f8 8bbc
00000220: fee4 cebc 7682 be3d 6b11 c3bc 8fe1 3fbd
00000230: 033b d33c ad5c 613c 44b5 c3bd c363 a6bc
00000240: 19d3 873d 92c3 ad3c 20b9 e13d 2219 7f3c
00000250: 74f7 a83d 75a9 40bb 3e23 4dbd ebf2 03be
00000260: de70 643d 23bb 54bc f442 3b3d d788 97bc
00000270: 93e0 033d 7dfa 943c 2cfa eb3d da1c 30bd
00000280: 3386 8b3d a629 c4bb f36e 1e3e 2d5f 9e3d
00000290: 1cb7 963d 2a27 0bbb 74d1 2c3d c953 ffbb
000002a0: b5b1 b9bc 0f48 9bbd c56f 773d 7a79 833d
000002b0: 9ea1 47bc 95d4 c93c df1b 9ebc 6cd6 c7bc
000002c0: 4f9f cdbb 595b 70bd 61b2 2b3d fd36 483d
000002d0: b1c1 89bc c3d2 823a e87e c3bb c274 7a3d
000002e0: 467c adbd 8bd8 fcbc 38b0 b3bd c24b 6ebc
000002f0: c528 2e3d 8576 a9bc ff09 0b3e ee0e d7bc
00000300: bdbf c9ba d2eb 053b ed46 a93c d10b cf3d
00000310: 283e eebd 0e1e b3bc 284c a9bd e487 d6bd
00000320: 1b14 ac3b 5f70 1bbd 8162 893d 6d02 f7bc
00000330: c69a 963c bc15 7b3c 7bcf 1c3e c9e2 6abe
00000340: 95b3 07bd 900c b7bd bb00 35bd 7b54 923c
00000350: 62ad 963c 27cf 8cbc bb53 e4bd c9dd 82bd
00000360: ca75 7a3d 0d4f e8bd e2da 783a 3932 0e3d
00000370: ba79 9fbd 4d1a b7bd 757f e6bb 8fab 1b3d
00000380: c475 2d3d b02d f13d 0f8e dcbc 0a48 8abb
00000390: 3f75 913c e4c5 c2bd 5be2 a23c 5f21 0c3d
000003a0: 0617 afbd 52b3 a33a b430 33bd c644 713e
000003b0: 5803 0c3d 7547 d9bb ca77 4cbd aa0c 393d
000003c0: e908 863d d134 0ebe 51a7 4cbd 3ed3 3bbd
000003d0: 5bb3 dd3d e08c 29bd 97df 6fbc f542 f7ba
000003e0: 6c70 b5bc 38ca 713d 93ee 2fbd 55da 5cbc
000003f0: e176 493c 3630 513d ba34 0fbd fda9 db3c

module.fc.linear.bias f4 [32]
0.23761334 0.065181844 0.026234187 0.06865528 0.26285037 0.015786808 0.025460852 -2.0312773e-15
-2.2086435e-33 0.07223316 0.01974436 -8.2322396e-05 -1.6316778e-06 0.20954895 0.1397316 0.013840193
0.19680534 0.17155541 0.22865966 -7.145196e-06 0.014063924 -2.7455558e-26 0.005730631 0.07168815
0.110901006 0.016553696 0.15119243 0.00063729734 0.16282648 0.22742133 0.19584604 0.15685733
00000000: e950 733e 0f7e 853d 14e9 d63c 249b 8c3d
00000010: 5394 863e 5653 813c 4793 d03c 745e 12a7
00000020: a77c 3789 fbee 933d edbe a13c 80a4 acb8
00000030: 0600 dbb5 0094 563e cd15 0f3e fac1 623c
00000040: 5787 493e 39ac 2f3e c225 6a3e c4c0 efb6
00000050: 5f6c 663c 0ef4 0795 04c8 bb3b 3dd1 923d
00000060: 1120 e33d 9e9b 873c 30d2 1a3e 4d10 273a
00000070: fcbb 263e 23e1 683e dd8b 483e 359f 203e

module.out.linear.weight f4 [1, 32]
0.080214165 0.15718001 -0.12293388 -0.05601651 0.047975354 -0.096194066 0.0014373754 -0.0008537374
-0.00085099007 -0.18133275 -0.10755689 0.0020728156 0.0010218163 0.055383872 -0.10669593 -0.21847782
0.03993636 -0.1751427 0.039265476 0.021603812 0.075683795 -0.011174082 -0.023685915 -0.12983964
0.22707635 -0.13702372 -0.11060626 0.0022892514 0.04799403 0.11228694 0.047228143 0.052066028
00000000: 5347 a43d ccf3 203e c2c4 fbbd 9171 65bd
00000010: ce81 443d 6501 c5bd 5166 bc3a 59cd 5fba
00000020: fa14 5fba 4baf 39be c946 dcbd 13d8 073b
00000030: 77ee 853a 33da 623d 6583 dabd a6b8 5fbe
00000040: 4f94 233d 9c58 33be d6d4 203d 7afa b03c
00000050: 1b00 9b3d 7f13 37bc f708 c2bc aff4 04be
00000060: b486 683e f24f 0cbe 8985 e2bd 4407 163b
00000070: 6395 443d b2f6 e53d 4c72 413d 3043 553d
