deepSNIaID/trained_models/Phase.pth (torch_old, 301652 bytes, 11 tensors)

module.conv1.convolution.weight f4 [8, 1, 25]
00000000: a0d7 cdbd e133 c6bd 846b a6be 937d 16bd
00000010: fa6a feba a8e8 2cbe 16b2 ab3d d485 b33d
00000020: 174d bdbd 4d78 2fbe 2629 1dbc c9b1 0fbd
00000030: 2bf9 f33d e6e8 82bb 05f8 f23d 9cf5 2a3c
00000040: ab26 323e fccd a33c d286 0d3d aaf2 3b3e
00000050: d3ee 1f3d 6697 1a3e 65c9 8d3d c67c 0a3d
00000060: 7156 9b3c c775 33be a31f bf3d a229 1abe
00000070: 6b58 cbbc 531a c0bc f8d5 54be 8d89 00be
00000080: 0858 24be f1e9 25be 1471 c1bd 6bb4 0dbe
00000090: 9d75 b13d e933 28bd 72c4 113d 8258 3a3d
000000a0: 760c dcbd 1226 ac3c d3d1 433e 53cd 033e
000000b0: 01d7 76bc 1cee a23e 1bee 433e 51de 393e
000000c0: 90d5 b53d d02e 993d 51e0 bbbd 9492 d7bc
000000d0: f775 2ebe 4938 dbbd aa0d 1cbb 011a aebd
000000e0: ce93 3fbd e5f3 91bd 618d 94bc 712d 84bc
000000f0: 10b7 a03b f00a 3f3d f1f1 873c c612 eabc
00000100: 2fe8 dabd 2750 a53b 04da 9e3d 7456 c23d
00000110: 7358 423e 13f9 f1bb 4630 323d 6770 ce3d
00000120: 74b8 1b3e 32b3 88bd 9c48 3f3d 8837 9ebb
00000130: 20f5 a2bb 180c b9bb 5cb8 eabb 2bcf 40bb
00000140: 512d 47bb 93c0 70bb 5e15 80bb 05f9 39bb
00000150: e55d 6cbb 9122 89bb a131 1ebb f814 78bb
00000160: 7510 18bb 8bbc 21bb 2162 85bb 9014 8ebb
00000170: f6a5 7bbb b7cb 80bb dff7 a9bb 14c0 67bb
00000180: fe6a 99bb c5fc abbb c88f d0bb 291d 53bb
00000190: 93bc b9ba 84eb b5ba 4f7a b3ba 3cd7 afba
000001a0: 5e2c adba d021 adba 590a aaba 16fb a9ba
000001b0: 4175 a5ba ba94 a8ba 6317 a6ba a20e a3ba
000001c0: eea3 99ba e1d6 90ba 1ceb a6ba 9516 b6ba
000001d0: d370 b3ba 67ed 6eba 9d31 4bba e8f2 d5ba
000001e0: 0684 01bb 5a49 c2ba 8fc6 84ba 1206 393a
000001f0: 7b58 02ba f7ba 93bd 955a 013d 4cb4 f8bc
00000200: df97 e43c f698 8bbc 5614 0ebc 6f39 34bd
00000210: e70d 34bd 496b 1e3c 1195 7b3d f0b0 fbbc
00000220: 8481 39bd 9565 2f3d 4780 473e cbb9 02bd
00000230: 1ee3 fd3c 87b9 0c3e e3ac 2c3c 22f4 e63d
00000240: 0e80 4c3e 67ce ba3d d14e f0bb fd82 a1bd
00000250: d44c b73d 3103 283d a760 3ebc 43b8 08be
00000260: 3414 ddbd 489a 6ebd e8e6 3ebd ab07 f2bd
00000270: 5acf e5bc e30c dbbc 4227 5ebd 2dad 003e
00000280: 034f 363e ad2e ff3d a1be f63d dc80 293c
00000290: 0da6 053e 5760 5a3e 474a 553e a774 d93d
000002a0: adbe 8b3d 0992 e63d b07c e8bd 7e25 2e3c
000002b0: 7957 183e ecf0 f7bd 6dc5 32be ed2b e0ab
000002c0: a260 b6ab 1267 96ab 81a5 78ab 62ab 4dab
000002d0: 1f9b 2eab 42e5 12ab c248 fcaa c55c d9aa
000002e0: f414 bfaa 96aa acaa a240 a2aa 6fbf 9eaa
000002f0: 2593 a1aa 18f6 a5aa e6d0 b0aa 2d12 c5aa
00000300: 86cf dcaa 5162 00ab c0d7 17ab 37f4 35ab
00000310: e890 59ab 0b1a 88ab fb59 a5ab 3f30 caab
-0.10050893 -0.09677864 -0.32503903 -0.03674085 -0.0019410544 -0.16885626 0.083835766 0.0876576
-0.09243219 -0.17135735 -0.00959233 -0.03508166 0.119127594 -0.003995049 0.11863712 0.010434534
0.17397563 0.019995682 0.034552403 0.18354288 0.03904612 0.15096816 0.069231786 0.0338104
0.018962117 -0.17525397 0.09332206 -0.15054944 -0.024822434 -0.023450052 -0.20784748 -0.12552471
-0.16049206 -0.16202523 -0.09445396 -0.13838355 0.08665011 -0.04106513 0.035587735 0.045494564
-0.10744564 0.021014247 0.1912301 0.12871294 -0.015065909 0.31822288 0.19133799 0.18151213
0.088786244 0.07479632 -0.09173644 -0.026315011 -0.17037188 -0.10704095 -0.0023811855 -0.085010536
-0.046771817 -0.07126597 -0.018133821 -0.01613495 0.0049046353 0.04664129 0.016594859 -0.028573405
-0.10688817 0.0050449553 0.07756427 0.09489146 0.18979053 -0.0073844283 0.04350307 0.10080033
0.15207082 -0.06674804 0.046700105 -0.004828397 -0.004973069 -0.0056471936 -0.0071630906 -0.0029420357
-0.0030392 -0.0036735877 -0.003908797 -0.0028377187 -0.0036066708 -0.004185029 -0.0024138468 -0.0037854295
-0.0023203169 -0.002467903 -0.004070536 -0.0043359473 -0.003839848 -0.0039305347 -0.0051870192 -0.003536229
-0.004681944 -0.0052486383 -0.0063647963 -0.0032213426 -0.0014170579 -0.0013879393 -0.0013693067 -0.0013415585
-0.0013212075 -0.001320893 -0.0012973055 -0.0012968506 -0.0012623445 -0.0012861707 -0.0012671765 -0.0012440274
-0.0011721828 -0.0011050367 -0.0012734863 -0.0013892228 -0.001369024 -0.0009114355 -0.00077512284 -0.0016323002
-0.001976253 -0.0014822886 -0.0010129976 0.00070580945 -0.0004972291 -0.07213395 0.031580526 -0.03035941
0.027904449 -0.01704071 -0.008671841 -0.044000085 -0.04395857 0.009669133 0.061421458 -0.030724019
-0.04528953 0.042821486 0.19482528 -0.031915467 0.030992087 0.13742648 0.010539266 0.112770334
0.19970724 0.091213994 -0.0073336144 -0.07886312 0.08950201 0.04101867 -0.011619723 -0.1335154
-0.10794869 -0.058252603 -0.046606928 -0.11817869 -0.028052974 -0.026739543 -0.054236658 0.12566061
0.17803578 0.124600746 0.12048078 0.010345664 0.13051625 0.21325813 0.20829116 0.10617953
0.06823478 0.11258323 -0.11351907 0.010629056 0.14877118 -0.12106499 -0.17458124 -1.5928349e-12
-1.2958699e-12 -1.0686749e-12 -8.833698e-13 -7.306847e-13 -6.203249e-13 -5.218778e-13 -4.4814678e-13 -3.8611315e-13
-3.3942955e-13 -3.0671705e-13 -2.882183e-13 -2.8199272e-13 -2.8701447e-13 -2.948065e-13 -3.1408833e-13 -3.5006842e-13
-3.922385e-13 -4.5611177e-13 -5.394539e-13 -6.4643034e-13 -7.7294985e-13 -9.67061e-13 -1.174893e-12 -1.4366354e-12

module.conv1.convolution.bias f4 [8]
00000000: 8527 eb3d 45e2 263e 00c5 363e 32c5 f33c
00000010: 0f45 103c b791 ddbd cec1 80bd fdf9 9fac
0.11482147 0.16297252 0.17848587 0.029757116 0.008805527 -0.108188085 -0.06286965 -4.546806e-12

module.conv2.convolution.weight f4 [16, 8, 25]
00000000: 05bc e3bc eaea a2bc a7de a5bc f283 aabb
00000010: a910 07bc d8a3 433b 4af0 04bc cb43 3a3c
00000020: aa2f 933b bb2f 653b 384e b9bb 77c3 8bbc
00000030: 1d48 98bc f65d 71bc c202 153a 62b5 773c
00000040: 9fc3 3f3d 2e1b f53c 61ad 073d 5f88 9b3c
00000050: cb27 963c e3c1 2abc 5df5 94bc 56c7 0cbd
00000060: cc23 46bd 2e0a fabc c8b8 e1bc c8e8 30bc
00000070: 5124 b0bb aae6 f93b 3adb 7c3c db80 b8ba
00000080: caac e6bb 820e aabc ed69 f6bc 576e c0bc
00000090: c863 58bc 7477 d3bc 13ea 2b3a c387 023d
000000a0: 2b9c 8e3d e783 9a3d ee60 3d3d 0530 6d3d
000000b0: 14b9 bc3c 242d 8dbc 5228 4ebd a1fd 86bd
000000c0: 2276 a5bd 54eb 96bd e37f 22bd 297e cfbc
000000d0: d995 d6bc f507 94bc 4198 83bc 375e adb9
000000e0: 9e34 9e3b 2913 4fbb 76a3 4abc de7e 32bc
000000f0: f6bb 61bc 9065 4cbc 9e7c 1dbc 9e80 cfbb
00000100: 2387 02bb 2a10 ec3c 4ccd ed3c 0854 c93c
00000110: b155 113d 1b8d 20bb 8b8c 93bc 9251 bbbc
00000120: 93e0 05bd 006f f1bc 9ea1 40bd 7423 d438
00000130: ddcc 8739 e727 ea39 a49e 113a edc4 3d3a
00000140: 9d1b 653a c689 783a ce48 8b3a b338 8f3a
00000150: dcf4 863a 711c 7c3a e9bc 523a 2f21 343a
00000160: 3ad5 083a 51f7 bc39 5b55 6139 5d2b 9638
00000170: 84a4 90b8 fdea 42b9 7a55 bcb9 a128 08ba
00000180: 8f03 36ba 475a 57ba dea0 63ba d40a 64ba
00000190: b389 15b9 f69d abb8 0ed3 4c35 002a 5438
000001a0: 9980 1139 9a3f 4339 64b8 7a39 9340 9339
000001b0: 456f a439 3905 a839 faef a239 5b54 9339
000001c0: 1a9d 8539 d133 5a39 5e9a 3639 176a 0b39
000001d0: 82ec c538 ae64 3638 698c 7037 4de1 23b8
000001e0: 855a 9eb8 3835 12b9 6c62 3cb9 47f3 5eb9
000001f0: 4ee0 5bb9 6a13 11bb 75c8 95bc 013b 83bc
00000200: a529 563d e00d 953d 046e 813d bf89 0d3d
00000210: 4b19 093d ff0a f73c 3d6c 783c e657 9d3d
00000220: 98df 58bb b107 fabc c93f 3f3d 6a8b 21bd
00000230: 5a2f c03d 7d32 d03c b8ac 26bd 4acd d63d
00000240: a2da 193d 0518 9c3b da1f 24bd 2d1a 11bd
00000250: 210f 87bb 0927 b5bb ad75 83bd 5840 19bc
00000260: 4562 fcbc 31b5 b5ba 6533 de3c 2042 a73d
00000270: 8ec5 973c 6b88 da3d 3481 d23b fb83 713d
00000280: 00aa 02bb e0c3 b2bc 6e65 d7b8 5682 f6bc
00000290: d201 4dbd 48e7 e33c 45ac 4c3d d96c f5ba
000002a0: ea9f d63d 4592 813d c5be 103b c280 e63d
000002b0: 6334 863c d887 953b 4cb6 0abd 2071 8726
000002c0: 9fbc bc26 c218 cb26 2802 ec26 fd0c 0427
000002d0: 16dc 0426 5dd9 bd26 e1ee 0f25 3f3c e224
000002e0: eda0 a223 0bb9 ed21 8396 9321 1946 95a1
000002f0: 9be3 d59f f948 d6a0 a033 78a0 c6dd 00a2
00000300: 6d31 cea2 18be 06a4 cac4 30a4 6218 46a5
00000310: fc85 98a5 0e43 5ca6 9ae5 9da6 b7dc 42a7
00000320: 2c11 793b c9c8 e03b b0d2 86bb 5ca5 10bc
00000330: d0e3 a7bc 2564 a1bc 56f5 9fbc a4df 0abc
00000340: 1272 1ebc 255b 373c 4779 5f3c 975f fb3c
00000350: 6f44 693c c13d 993c 58e3 933c 144b e93c
00000360: 852e cd3c 3fa4 47bb a932 37bc 9e4d 88bc
00000370: 8752 e6bc d972 e1bc 8387 a8bc 2a50 6fbc
00000380: 3f57 c5bb 5bb1 0a3c fdd6 233b 4857 13bd
00000390: 4a59 f7bc 7b69 1ebd f6dc 0bbd 6c6a 50bc
000003a0: 887e 9ebc 069f ea3c bb8a e73c 6835 4f3d
000003b0: 777a 523d 6cf7 153d eaf0 3e3d c6fd d33c
000003c0: b50b 6ebb 1251 f6bb 5eaa 98bc 7625 d3bc
000003d0: 5a92 d6bc 63eb 1cbd d9e9 c9bc bfaa 9dbc
000003e0: ac71 d2bb 0121 473c 6457 0e3b 0fd3 26bb
000003f0: 19cb 9ebb b6c6 85bc 984e 96bc 21a7 80bc
-0.027799616 -0.019887406 -0.02024777 -0.0052037174 -0.008243718 0.0029852297 -0.00811393 0.011368702
0.004491766 0.0034971077 -0.0056550764 -0.017060978 -0.018589074 -0.014731875 0.000568431 0.015118929
0.04681742 0.029920187 0.03312433 0.018985925 0.018329522 -0.010422203 -0.018183405 -0.03436979
-0.048373982 -0.030522432 -0.02755393 -0.010797687 -0.005375423 0.0076263743 0.015433127 -0.0014076488
-0.007039641 -0.020758871 -0.030079806 -0.023490114 -0.013207383 -0.025813796 0.0006558012 0.031867754
0.069633804 0.075446896 0.046235017 0.057907123 0.02303747 -0.017233439 -0.05033142 -0.065913446
-0.08079173 -0.07369104 -0.039672744 -0.025328713 -0.0261945 -0.0180702 -0.016063811 -0.00033067327
0.00482805 -0.0031597114 -0.012368074 -0.010894505 -0.013777724 -0.012475386 -0.009612231 -0.006332471
-0.0019916974 0.028816301 0.029028557 0.024576202 0.035482112 -0.0024498168 -0.018011352 -0.022866044
-0.032684874 -0.029471874 -0.04702913 0.000101155514 0.00025901842 0.00044661688 0.00055549503 0.0007239122
0.00087397714 0.0009480979 0.0010626556 0.0010926932 0.0010296362 0.0009617275 0.0008039014 0.00068714
0.00052197615 0.0003604242 0.0002148947 7.1606344e-05 -6.8970985e-05 -0.00018588822 -0.0003592184 -0.00051940425
-0.00069432793 -0.00082150515 -0.0008683334 -0.0008699123 -0.00014261044 -8.183338e-05 7.6303047e-07 5.0583854e-05
0.00013876184 0.00018620343 0.00023910549 0.00028086136 0.0003136342 0.00032047348 0.00031077844 0.00028100875
0.00025484787 0.00020809403 0.00017414379 0.00013295595 9.437745e-05 4.3485947e-05 1.43378065e-05 -3.9072056e-05
-7.550888e-05 -0.0001394347 -0.00017965742 -0.00021262198 -0.00020969028 -0.0022136816 -0.018284062 -0.016019346
0.05228581 0.07278037 0.06319812 0.034555193 0.033471387 0.03015661 0.015162525 0.07682781
-0.0033092257 -0.030521246 0.04669169 -0.039439596 0.093840316 0.0254147 -0.04069206 0.104883745
0.03756202 0.0047636055 -0.04006944 -0.035425354 -0.0041216766 -0.005528335 -0.06418929 -0.00935372
-0.030808577 -0.0013863203 0.027124116 0.08166909 0.018526819 0.10670551 0.0064240936 0.058963757
-0.0019937754 -0.021821916 -0.00010270892 -0.030091446 -0.050050564 0.027820244 0.049968977 -0.0018724456
0.1047972 0.06326727 0.0022086364 0.11255027 0.016382402 0.004563313 -0.033865258 9.398169e-16
1.3096246e-15 1.4092665e-15 1.6376374e-15 1.832572e-15 4.609497e-16 1.3173426e-15 1.2484208e-16 9.811394e-17
1.763223e-17 1.6108725e-18 1.0000948e-18 -1.0115187e-18 -9.058555e-20 -3.63013e-19 -2.1023498e-19 -1.746464e-18
-5.5888743e-18 -2.9217634e-17 -3.8330603e-17 -1.7182024e-16 -2.6458588e-16 -7.641871e-16 -1.0956297e-15 -2.7042558e-15
0.003800462 0.006859873 -0.0041144714 -0.008828487 -0.020494372 -0.019701073 -0.019526165 -0.008476172
-0.009670751 0.011191164 0.013639755 0.03068523 0.014237507 0.018706204 0.018052742 0.028478183
0.025046596 -0.0030462889 -0.011181512 -0.016638573 -0.028115524 -0.027520584 -0.02057243 -0.014606515
-0.0060223634 0.008465136 0.002499997 -0.03597191 -0.030193944 -0.038674813 -0.03414627 -0.012720685
-0.019347444 0.028640281 0.028264394 0.05058804 0.051386323 0.036612913 0.046616472 0.025877845
-0.0036322896 -0.0075169886 -0.018635925 -0.025774699 -0.026192833 -0.03831042 -0.02464764 -0.019246457
-0.006422242 0.012153865 0.002171957 -0.002545539 -0.0048459885 -0.016330104 -0.018348023 -0.015704693

module.conv2.convolution.bias f4 [16]
00000000: 238b 883c 9264 bf3d cd4e 703d 2a98 0080
00000010: 71b9 873d 22dd c53d 2498 d63d f53c 453d
00000020: b27b 2c3d 0db0 b53c e2a3 1d3d b3be 243e
00000030: ccbe 72b4 96f5 cc3d d1a6 a93d 91ef b43d
0.016667908 0.09345354 0.0586689 -5.4586e-41 0.06627167 0.09661318 0.10478237 0.048153836
0.042110153 0.022178674 0.03848637 0.16088371 -2.2607418e-07 0.10007779 0.08283771 0.08834756

module.conv3.convolution.weight f4 [32, 16, 25]
00000000: 1120 0080 2075 0080 2725 0000 140e 0080
00000010: cd25 0000 3c03 0000 f424 0000 782a 0000
00000020: 1b18 0080 6896 0080 079e 0080 da94 0080
00000030: ee38 0000 d1a9 0000 064a 0000 5a65 0000
00000040: 557b 0000 f20d 0000 be7e 0000 e028 0000
00000050: 4b10 0080 7d18 0000 9e85 0080 c443 0080
00000060: 7415 0000 e328 0000 ea56 0000 6f3e 0000
00000070: 6e8e 0080 857b 0080 3714 0000 340c 0000
00000080: d66e 0000 ce85 0000 5798 0000 a12b 0080
00000090: 8b3e 0000 1e5b 0080 f160 0080 699d 0080
000000a0: 6940 0000 4696 0000 100a 0000 679e 0080
000000b0: 4c63 0080 b844 0080 ab66 0080 fd55 0080
000000c0: ca09 0080 7c91 0000 9c28 0080 968c 0080
000000d0: 9891 0080 93a2 0080 0602 0080 bd08 0080
000000e0: 19b1 0000 59a1 0080 4ea4 0080 1889 0000
000000f0: 171f 0080 6a5e 0000 5fad 0000 198f 0080
00000100: e457 0000 4108 0080 0165 0080 0131 0080
00000110: c299 0000 b892 0080 bf03 0080 166a 0080
00000120: 8790 0080 1509 0000 8d7b 0080 9768 0000
00000130: e25a 0000 f52c 0000 6724 0080 3b2e 0000
00000140: 457e 0000 f055 0000 6d80 0000 d283 0080
00000150: 6d35 0080 e537 0080 1f39 0080 b178 0080
00000160: 343e 0000 3d25 0000 a251 0080 b181 0000
00000170: fdad 0000 b124 0000 5289 0080 4744 0000
00000180: 463d 0000 1843 0080 3c98 0080 1d74 0080
00000190: 4b53 0000 0a25 0000 ec53 0080 ea61 0000
000001a0: fc70 0000 d063 0000 d20e 0000 20aa 0000
000001b0: 7d93 0000 f743 0080 5404 0000 7643 0000
000001c0: 607c 0080 b08a 0000 6c51 0000 ea3b 0080
000001d0: 3f1c 0000 dc15 0080 860a 0080 6eac 0000
000001e0: 8fa6 0000 6014 0000 3843 0000 f04b 0000
000001f0: 9a1b 0080 d397 0000 4a44 0000 376f 0080
00000200: a484 0000 9c58 0000 567e 0080 a4a9 0080
00000210: 083c 0080 5024 0000 146b 0080 c393 0080
00000220: f388 0080 8085 0080 5609 0000 ce43 0000
00000230: 1857 0000 3274 0000 1e33 0000 5f4b 0000
00000240: 1d6c 0000 d540 0000 1c0b 0000 e563 0080
00000250: eb5e 0000 1b57 0000 2e44 0000 591b 0000
00000260: 752d 0080 6d80 0080 360e 0080 6c53 0080
00000270: 32a4 0000 745f 0000 9b3c 0000 b96c 0000
00000280: bf2b 0000 fc51 0000 9947 0000 cc87 0000
00000290: 532e 0000 7395 0000 0853 0000 369a 0000
000002a0: 7f9c 0000 44ab 0000 1669 0000 a057 0000
000002b0: 6b05 0080 2f4f 0080 206a 0080 8b0d 0080
000002c0: 5481 0000 f0a9 0000 518e 0000 913c 0080
000002d0: 4412 0080 363c 0000 e6a0 0000 ea86 0000
000002e0: a162 0080 83a8 0080 b869 0080 cb6b 0080
000002f0: 5504 0080 d29f 0080 7d66 0000 5c93 0080
00000300: 8c16 0080 297a 0000 8783 0000 e62d 0000
00000310: a291 0000 9358 0080 eea9 0000 dea8 0000
00000320: 3106 0080 b92e 0000 643b 0080 fd5a 0000
00000330: 4faa 0000 4d06 0000 c078 0080 3a6a 0080
00000340: 4935 0080 0556 0080 fa30 0080 0e44 0080
00000350: 8143 0080 3e90 0080 4560 0080 37ae 0080
00000360: 1961 0080 4261 0080 2350 0000 f202 0080
00000370: 6c81 0000 f546 0000 a196 0000 76a7 0000
00000380: 4b49 0000 e042 0000 8827 0080 6798 0000
00000390: f905 0000 7f05 0000 dd32 0080 6f1b 0000
000003a0: ff53 0000 5434 0000 a628 0000 86aa 0000
000003b0: 03aa 0000 3760 0080 cd12 0000 7c66 0080
000003c0: 17ae 0080 c283 0000 2a47 0000 7110 0080
000003d0: 34a5 0080 cf86 0080 0a1f 0000 f342 0080
000003e0: ed25 0000 294d 0000 620f 0000 0724 0000
000003f0: 3650 0080 5487 0080 c20a 0080 d664 0080
-1.1503e-41 -4.2017e-41 1.3328e-41 -5.05e-42 1.356e-41 1.16e-42 1.3256e-41 1.5235e-41
-8.647e-42 -5.3956e-41 -5.669e-41 -5.3398e-41 2.0423e-41 6.0919e-41 2.6555e-41 3.6358e-41
4.4243e-41 5.003e-42 4.5467e-41 1.4663e-41 -5.845e-42 8.785e-42 -4.7933e-41 -2.431e-41
7.696e-42 1.4667e-41 3.1179e-41 2.2397e-41 -5.1094e-41 -4.431e-41 7.252e-42 4.378e-42
3.976e-41 4.8e-41 5.4649e-41 -1.5651e-41 2.2436e-41 -3.2687e-41 -3.4776e-41 -5.6468e-41
2.3106e-41 5.3908e-41 3.61e-42 -5.6824e-41 -3.5621e-41 -2.4652e-41 -3.683e-41 -3.0847e-41
-3.512e-42 5.219e-41 -1.4568e-41 -5.0433e-41 -5.2229e-41 -5.832e-41 -7.26e-43 -3.135e-42
6.353e-41 -5.788e-41 -5.8941e-41 4.918e-41 -1.1153e-41 3.387e-41 6.2194e-41 -5.1334e-41
3.1529e-41 -2.961e-42 -3.6233e-41 -1.7579e-41 5.5158e-41 -5.2633e-41 -1.344e-42 -3.8056e-41
-5.1847e-41 3.258e-42 -4.4322e-41 3.752e-41 3.2603e-41 1.6128e-41 -1.3059e-41 1.6584e-41
4.5297e-41 3.0829e-41 4.607e-41 -4.7288e-41 -1.9166e-41 -2.0051e-41 -2.0491e-41 -4.3296e-41
2.2314e-41 1.3359e-41 -2.9284e-41 4.6525e-41 6.2415e-41 1.3162e-41 -4.9261e-41 2.4493e-41
2.1981e-41 -2.4069e-41 -5.4611e-41 -4.1654e-41 2.988e-41 1.3287e-41 -3.0105e-41 3.5125e-41
4.0531e-41 3.5806e-41 5.317e-42 6.103e-41 5.2909e-41 -2.4381e-41 1.553e-42 2.42e-41
-4.4617e-41 4.9752e-41 2.9209e-41 -2.1493e-41 1.0133e-41 -7.842e-42 -3.775e-42 6.1856e-41
5.975e-41 7.309e-42 2.4114e-41 2.7241e-41 -9.902e-42 5.4464e-41 2.4497e-41 -3.9896e-41
4.7582e-41 3.1787e-41 -4.5321e-41 -6.0856e-41 -2.1535e-41 1.3026e-41 -3.8412e-41 -5.3007e-41
-4.9128e-41 -4.7891e-41 3.349e-42 2.4324e-41 3.1243e-41 4.1683e-41 1.8337e-41 2.7038e-41
3.8784e-41 2.3257e-41 3.985e-42 -3.5835e-41 3.405e-41 3.1248e-41 2.4458e-41 9.81e-42
-1.6307e-41 -4.607e-41 -5.098e-42 -2.9926e-41 5.8902e-41 3.4242e-41 2.1741e-41 3.9002e-41
1.5693e-41 2.941e-41 2.5684e-41 4.8715e-41 1.6618e-41 5.3612e-41 2.9786e-41 5.532e-41
5.614e-41 6.1439e-41 3.7698e-41 3.1434e-41 -1.944e-42 -2.8406e-41 -3.807e-41 -4.858e-42
4.6394e-41 6.0962e-41 5.1054e-41 -2.1727e-41 -6.552e-42 2.16e-41 5.772e-41 4.8398e-41
-3.5381e-41 -6.045e-41 -3.7925e-41 -3.8669e-41 -1.554e-42 -5.7333e-41 3.6766e-41 -5.2863e-41
-8.088e-42 4.3823e-41 4.7183e-41 1.6465e-41 5.2243e-41 -3.1774e-41 6.0959e-41 6.0578e-41
-2.221e-42 1.6761e-41 -2.1305e-41 3.264e-41 6.1095e-41 2.26e-42 -4.3317e-41 -3.8107e-41
-1.9115e-41 -3.0858e-41 -1.757e-41 -2.4413e-41 -2.4216e-41 -5.1744e-41 -3.4535e-41 -6.2497e-41
-3.4832e-41 -3.489e-41 2.8748e-41 -1.057e-42 4.6428e-41 2.5455e-41 5.4035e-41 6.0074e-41
2.6293e-41 2.399e-41 -1.4181e-41 5.4672e-41 2.143e-42 1.972e-42 -1.8246e-41 9.841e-42
3.0132e-41 1.8772e-41 1.4582e-41 6.1172e-41 6.0989e-41 -3.4515e-41 6.744e-42 -3.6764e-41
-6.2452e-41 4.7266e-41 2.5529e-41 -5.898e-42 -5.9264e-41 -4.836e-41 1.1135e-41 -2.4017e-41
1.3605e-41 2.768e-41 5.518e-42 1.2924e-41 -2.8774e-41 -4.8547e-41 -3.859e-42 -3.6173e-41

module.conv3.convolution.bias f4 [32]
00000000: eab1 168e 9433 4eb5 4fcb 25b1 7517 b63d
00000010: c463 333d c625 0ab7 3bcf a73d ad64 a23d
00000020: 4071 a78c b6dc 613d b86c 1a3d 5c3f 69ba
00000030: f43d 133e ea9a ed3d 2186 fc3c 48f1 4fa3
00000040: 6d4e b4b8 b716 343d da6f bc3d 641a fd3d
00000050: f937 eeb7 dc74 e93b 0b24 9c38 bd95 5039
00000060: b466 583d cb55 253a 4223 273d 9e45 93ba
00000070: b1b1 603d c23f 55b1 ae97 f93c aac5 3e3d
-1.857459e-30 -7.6816036e-07 -2.4126228e-09 0.08891193 0.043796316 -8.234236e-06 0.08193823 0.07929359
-2.5798584e-31 0.055142127 0.03770134 -0.0008897686 0.14379102 0.11601813 0.030825676 -1.1272586e-17
-8.597677e-05 0.043966975 0.092010215 0.12358549 -2.8397875e-05 0.0071245264 7.445373e-05 0.00019892208
0.05283232 0.00063070346 0.04080511 -0.0011235957 0.05485696 -3.1031822e-09 0.030467834 0.046575226

module.conv4.convolution.weight f4 [32, 32, 25]
00000000: 3348 0080 0e9e 0000 160d 0080 630e 0080
00000010: 265f 0000 3b0f 0080 de6f 0000 7f1e 0000
00000020: 6ca8 0000 8d19 0080 fba9 0000 e472 0080
00000030: 8eae 0080 a548 0000 7b93 0000 2572 0000
00000040: eb45 0000 982d 0000 4321 0080 6184 0000
00000050: 2a79 0080 4113 0000 c57f 0000 d31e 0080
00000060: 619c 0080 8a52 0080 2446 0000 b03f 0000
00000070: 118c 0000 659b 0080 7000 0080 2e5a 0000
00000080: ce03 0000 b6a3 df88 9050 0000 354c 0080
00000090: 3507 0080 998c 0000 2f79 0080 ef58 0000
000000a0: 9d53 0080 ec45 0000 da83 0080 6962 0000
000000b0: e296 0000 8a18 0080 113c 0080 9c61 0000
000000c0: 8771 0080 95a2 0080 9d15 0000 a19f 0080
000000d0: fd13 0000 f5a5 0000 086c 0000 8a40 0000
000000e0: 6409 0080 93ab 0080 b669 0000 bf8b 0000
000000f0: a562 0080 0ea9 0080 0b0d 0080 f107 0000
00000100: 6d14 0080 4528 0080 0d0f 0080 6c5c 0000
00000110: 570c 0080 441b 0000 5141 0080 854e 0080
00000120: 4453 0000 a548 0000 e30f 0080 d946 d6a6
00000130: ce2b dbaa d681 b8aa b0f5 c0a7 2d89 76a6
00000140: 345a ada5 a8f5 48a6 4413 2fa9 6148 1caa
00000150: 59d1 1da9 f89f 86a9 63a7 7ca8 91fc 43a6
00000160: d125 92a5 e5dd 2ea8 f01b 3fa9 b6cd 5baa
00000170: e0c4 2ba9 f604 aaa7 ee16 84a5 24d3 70a4
00000180: fdf7 4aa2 9b9e 65a0 4337 2120 b582 d2a5
00000190: 5261 06ac 604a 0aab b356 11ac 36df 352c
000001a0: 91a2 4d2c 8163 5bad 7696 94ac 9dcc 35ad
000001b0: 0650 3cae dc60 1fae 06eb b2ab 1756 56a9
000001c0: c066 7e25 c6dc b9a7 2004 2eae 5e56 05ae
000001d0: c297 e7ac 8b80 0ba8 1bcd 7ba9 b23b 6aaa
000001e0: 8785 43aa bb77 e7aa 1dff bcaa bc07 77aa
000001f0: 134a 8caa e268 0080 8daf 0000 5477 0000
00000200: e95a 0000 8f8f 0080 cf5b 0000 318b 0000
00000210: db8d 0080 d2af 0000 6932 0000 6073 0080
00000220: 855a 0080 ae57 0000 77ae 0080 db80 0080
00000230: a344 0080 6b43 0000 aa60 0000 ed60 0000
00000240: f43e 0080 8630 0080 c877 0080 1c11 0000
00000250: e208 0000 9383 0000 71f8 83ad abec 9eac
00000260: 8d3d 86ac e36e b4aa 595c 58a8 0e91 8da4
00000270: 5044 fea3 ada9 a423 e324 a3a4 3cd9 76a5
00000280: 32ac f9a5 bba4 5ea5 4095 e4a3 cbfc 9ea2
00000290: ed32 eba2 64cd 55a2 4cb7 b9a1 0353 c1a7
000002a0: ca9f fdaa ce53 04ae 1df1 3fb0 c95c 14b1
000002b0: 34ac acb0 a541 abaf a0bb faac 824a 58af
000002c0: f3a6 83ad af2b 35ad 3c3a 7aac 4f10 53ab
000002d0: 977b 65ad d27b a1af e8ab a5ae 3b1c ccae
000002e0: b980 35ae 94af 51ad 7680 ffa8 4c1b b3a6
000002f0: 6e15 2eab b2c9 2db0 a3e5 a7b0 e090 dbb0
00000300: bcbb 55b1 fd33 98b1 8ff0 24b1 784c eaaf
00000310: 0108 5faa e9b9 189d 7920 76a6 f288 21af
00000320: 4986 0080 b9a7 0080 379b 0080 ba90 0080
00000330: a364 0080 2d0a 0000 2405 0000 ef29 0080
00000340: 6c47 0000 cc99 0080 4706 0080 6180 0000
00000350: 1e3f 0000 7790 0000 7b9f 0000 e052 0000
00000360: 0d9f 0000 4816 0000 7c56 0080 9175 0080
00000370: ed48 0080 b295 0080 828d 0000 6109 0000
00000380: 1772 0000 22e9 d034 1e60 4db4 535c 81b3
00000390: 06c9 13b3 6cca 88b2 2c2f 83b0 2dd5 c8ae
000003a0: 4630 d3ad a1c7 c8ac 969b 36ae cf0f f5af
000003b0: 9143 4db2 e1be c432 4760 0f34 2e3b 4d32
000003c0: 8a21 e632 b76c b0b1 e6fe ac32 afd0 dab2
000003d0: 55dd 8431 bac4 74b2 2ad3 b131 0c48 8831
000003e0: 9782 2430 1b2c 5cb1 5c7f 459e b141 a09e
000003f0: 443f d3a1 071e 00a4 6836 f5a5 76f2 19a5
-2.59e-41 5.67e-41 -4.694e-42 -5.161e-42 3.4133e-41 -5.464e-42 4.013e-41 1.094e-41
6.0418e-41 -9.166e-42 6.0978e-41 -4.1215e-41 -6.2618e-41 2.606e-41 5.2906e-41 4.0947e-41
2.5082e-41 1.6356e-41 -1.1932e-41 4.7489e-41 -4.3465e-41 6.907e-42 4.5835e-41 -1.1058e-41
-5.6098e-41 -2.961e-41 2.5162e-41 2.2847e-41 5.0246e-41 -5.5745e-41 -1.57e-43 3.235e-41
1.365e-42 -1.3459813e-33 2.89e-41 -2.7338e-41 -2.585e-42 5.0437e-41 -4.3472e-41 3.1903e-41
-2.9995e-41 2.5083e-41 -4.73e-41 3.5303e-41 5.4127e-41 -8.803e-42 -2.1548e-41 3.5016e-41
-4.0726e-41 -5.8323e-41 7.753e-42 -5.7264e-41 7.17e-42 5.9534e-41 3.8754e-41 2.3152e-41
-3.369e-42 -6.1549e-41 3.7922e-41 5.0131e-41 -3.5387e-41 -6.0645e-41 -4.679e-42 2.849e-42
-7.327e-42 -1.4446e-41 -5.399e-42 3.3155e-41 -4.427e-42 9.781e-42 -2.3431e-41 -2.8168e-41
2.987e-41 2.606e-41 -5.699e-42 -1.4868436e-15 -3.893261e-13 -3.2775058e-13 -5.355708e-15 -8.5534303e-16
-3.007184e-16 -6.9721865e-16 -3.8874516e-14 -1.3880695e-13 -3.5042583e-14 -5.9785456e-14 -1.4025106e-14 -6.7996507e-16
-2.5352588e-16 -9.707056e-15 -4.243475e-14 -1.9522478e-13 -3.814039e-14 -4.7189857e-15 -2.2913888e-16 -5.2220547e-17
-2.7507389e-18 -1.9449533e-19 1.3655515e-19 -3.6517764e-16 -1.909657e-12 -4.9130665e-13 -2.0653867e-12 2.5845554e-12
2.9222495e-12 -1.2470803e-11 -4.2231175e-12 -1.0334092e-11 -4.2817326e-11 -3.6238443e-11 -1.2712893e-12 -4.7592216e-14
2.2065801e-16 -5.158718e-15 -3.9566683e-11 -3.031741e-11 -6.5822634e-12 -7.743923e-15 -5.5911096e-14 -2.0804086e-13
-1.7365806e-13 -4.1116923e-13 -3.357253e-13 -2.194069e-13 -2.4920395e-13 -3.7625e-41 6.2976e-41 4.2807e-41
3.2612e-41 -5.1499e-41 3.2935e-41 4.9932e-41 -5.0888e-41 6.3072e-41 1.8084e-41 -4.1389e-41
-3.2472e-41 3.1454e-41 -6.2586e-41 -4.6225e-41 -2.4622e-41 2.4185e-41 3.4677e-41 3.477e-41
-2.2583e-41 -1.7407e-41 -4.297e-41 6.138e-42 3.187e-42 4.72e-41 -1.5003306e-11 -4.5169055e-12
-3.8153426e-12 -3.2051366e-13 -1.2010433e-14 -6.1394735e-17 -2.7567667e-17 1.7852776e-17 -7.075247e-17 -2.14107e-16
-4.3311299e-16 -1.9311243e-16 -2.478302e-17 -4.309364e-18 -6.3750797e-18 -2.8975616e-18 -1.2584606e-18 -5.3658262e-15
-4.5052704e-13 -3.008776e-11 -6.982804e-10 -2.1589577e-09 -1.256359e-09 -3.1151362e-10 -7.126258e-12 -1.9671556e-10
-1.4967116e-11 -1.02983585e-11 -3.5559463e-12 -7.498489e-13 -1.3044585e-11 -2.937371e-10 -7.533868e-11 -9.281861e-11
-4.1268964e-11 -1.1919261e-11 -2.8366398e-14 -1.2428019e-15 -6.184696e-13 -6.322366e-10 -1.2216116e-09 -1.5975523e-09
-3.1102294e-09 -4.4296926e-09 -2.4001883e-09 -4.2618686e-10 -1.9809156e-13 -2.0213146e-21 -8.5392404e-16 -1.4691517e-10
-4.8172e-41 -6.0168e-41 -5.568e-41 -5.1918e-41 -3.6102e-41 3.65e-42 1.844e-42 -1.5043e-41
2.5621e-41 -5.5172e-41 -2.252e-42 4.6054e-41 2.2642e-41 5.1824e-41 5.7211e-41 2.973e-41
5.7057e-41 7.993e-42 -3.1025e-41 -4.2175e-41 -2.6161e-41 -5.37e-41 5.0763e-41 3.365e-42
4.0928e-41 3.8912646e-07 -1.912708e-07 -6.023824e-08 -3.4408934e-08 -1.5924535e-08 -9.544912e-10 -9.1328146e-11
-2.400936e-11 -5.706505e-12 -4.1520197e-11 -4.4576473e-10 -1.1947933e-08 2.2904205e-08 1.3352938e-07 1.1946026e-08
2.6790776e-08 -5.1346336e-09 2.013935e-08 -2.5473438e-08 3.866868e-09 -1.42474e-08 5.1753846e-09 3.9663117e-09
5.984843e-10 -3.2039285e-09 -1.04554305e-20 -1.6967828e-20 -1.4314662e-18 -2.778101e-17 -4.2537592e-16 -1.3352784e-16

module.conv4.convolution.bias f4 [32]
00000000: 0569 d0b5 9ce1 cf3d c7e8 1a3d caa0 113d
00000010: c948 b437 32ac ca3d 738b a8b7 3d39 ad3c
00000020: d8f3 fdbb 0250 a83c 0ba0 803d 6b2d a93d
00000030: d010 df96 affd 1f3d 372f a13d 581d 073e
00000040: 79d2 863d 8301 713d bce4 0c3e 8847 903d
00000050: 0a1a ff3c baa6 983d c2ec a73d db11 fb3c
00000060: 65ee 1dbc 0833 b73d 47d2 f23d d5be 503d
00000070: 8a6b 6d3d 622f dc3d 6ef2 963d 296c 993d
-1.5527772e-06 0.101504534 0.03781965 0.03555373 2.1491565e-05 0.09896125 -2.0092097e-05 0.021145457
-0.0077500157 0.020545963 0.06280526 0.08260616 -3.6038203e-25 0.03906029 0.07870334 0.13194788
0.06583113 0.058839332 0.1375913 0.070448935 0.031140346 0.074536756 0.08199455 0.030648163
-0.009639357 0.0894528 0.118565135 0.05096324 0.057963885 0.10751225 0.073704585 0.07491333

module.fc.linear.weight f4 [16, 2048]
00000000: 95e0 a123 5493 0000 5370 c894 2b68 9d2f
00000010: faa6 f6ad d3e2 1c09 b3ab d29d 20f0 a799
00000020: 10e7 a498 05a3 d39a a61d 0000 162d 0080
00000030: 1394 0080 0068 9a81 3a3d 0000 8f50 ab98
00000040: b8b1 aca5 e300 c49e 982b 3900 bb37 5f8c
00000050: 1d87 2a80 1701 0080 6033 0080 e269 0080
00000060: b792 1018 8fa2 ceac 2c79 c125 bc06 9f2b
00000070: e02f 190d 563f 3493 8f65 bd88 4280 0080
00000080: 3d3e 0080 cf90 0000 0e37 d107 115f 0000
00000090: a3af 0000 b7b1 0000 8921 b91c 590e 0127
000000a0: 32a4 0080 3439 0000 0c30 818d bad6 0d26
000000b0: 0058 1b21 e65e ad13 353e 2115 2161 0080
000000c0: 7045 cc93 1d43 0080 e416 0080 2b83 0000
000000d0: c66d 0080 c050 0000 9657 0080 2d77 409d
000000e0: f978 6219 78be 0995 a44a 0000 f436 0000
000000f0: 1c12 0000 687f 0000 0e0e 3328 ac99 cc21
00000100: 38c5 f63c fd79 5c3c 2b08 69bb c2b5 1a3a
00000110: e87f 483a e88e b93c 2370 d73b b1b0 be3b
00000120: f50c d43c df14 1c3d bd6d df3c 5224 b73c
00000130: 95c2 99bb 579b 86bc c68e fd3c e69f dd3b
00000140: e2eb 8e3c d6db 033c d687 1e3c 07a1 cbbb
00000150: a0d4 95bb 4e93 353c 7712 cabb 3141 5a3d
00000160: f09f bf3c b7aa 843c 1b05 703c 511d 09bb
00000170: 6b90 c43c 1709 d23c 5df9 92bc f101 3039
00000180: 7b1c 313d 9cba cdbb bb3d a5bc 3170 d4bc
00000190: 7d76 17bc 2821 6cbc 149c 43bd c1a6 cbba
000001a0: 953d b53c 144a 78bb 759c 683c b069 26bc
000001b0: 92c7 8cbd 1313 2bbc 1281 3f3c bfd2 35bd
000001c0: cece 82bc 3d33 81bd eec5 203d e08d 5dbc
000001d0: eae2 93bc b84e e0bb 4583 8c3c 97c8 8bbb
000001e0: f5f0 d23b 197d 6a3c 391c 75bc b374 a43c
000001f0: 0b98 8f3c e084 efba 5a2b a03c 8cb7 393c
00000200: d9ea 363b b618 3a3c 1df5 1d3c 033b 5a3b
00000210: eb6b ff3b d9a6 183c 7066 0e3b 562b b73b
00000220: 8b39 2e3d 0ea8 393d 1944 513c c55a e7bc
00000230: 8189 c2bb 2d75 0bbd 5353 84b8 c49e c93b
00000240: 0a7b c03a 118d 85bb 5de4 9e3c f86e 8e3d
00000250: f6f3 a3bb ea4e 243d b3dd 053c bc44 b3bc
00000260: ff32 ab3a 5935 8fba ca77 193c 6eee 08bd
00000270: c22c 9ebd df18 a8bd eb44 3c3b f3b8 9f3b
00000280: 0270 f0bc 211e 583d ef4a 603d 8f42 c2bc
00000290: b0a9 53bd 0512 89bc 0607 90bc bcc1 0ebd
000002a0: 9dda de3b 146b 81bb d1cc a2ba 5e5a 023d
000002b0: c91e 29bd 36cf f1bc 88a1 05bc b58c 9bbb
000002c0: 70eb 0fbc c6e3 863c b82b c0bc 724d 02bd
000002d0: d271 d03b c50f 81bc c1fe 4cbb c0bc 43bc
000002e0: 3b7b b13c c820 a93b 7d20 82bc 16e9 83bb
000002f0: 969a 6e3c b07c 473c 18ea 7dbc cd00 153c
00000300: e108 2e3c 72ba 973b c6d1 b83c 98bc 9b3c
00000310: 08e5 cdba 8e86 233b 96d7 663b 6599 373a
00000320: 18c1 7fbc 4ac2 f23b 355b 3fbb e7d6 673c
00000330: 4c05 833c 1c62 a73c 3130 11bd 1607 123d
00000340: fe48 553d 89ef 6f3c 8c9c dabc 92ef 12bd
00000350: 4349 4cbc 77b0 e7bb 62dc 8ebc f719 5e3c
00000360: e4e3 6fba 01ba 7cbd ed50 953c 280c 88bb
00000370: aeae 923b b7bb f93b 830f 123d 51e9 303b
00000380: da59 32bd ca95 3cbc f7b3 88bd ea62 01bd
00000390: 653d 873b 1817 043d 5d9e 293d 2e97 f93c
000003a0: c968 933c 54d6 02ba 6cf7 8fbd e0eb 15bd
000003b0: c2b0 41bc 36dd 6f3c d8cf c23c 5f4a 4bba
000003c0: dac8 213c a0df b2bd 6887 16bb e5c2 05bd
000003d0: e04c 593b 3465 b3bc d6d5 7abb 97c3 203d
000003e0: 1fec 3dbc 4b1e 6dbc db8b d23b 1c60 523d
000003f0: a4c5 38bc 9008 003d daf2 353d 17ea 373b
1.7550769e-17 5.2851e-41 -2.0239143e-26 2.863215e-10 -2.8041115e-11 1.888447e-33 -5.576407e-21 -1.7364381e-23
-4.262632e-24 -8.753093e-23 1.0636e-41 -1.6174e-41 -5.3119e-41 -5.67199e-38 2.1964e-41 -4.4283807e-24
-2.995767e-16 -2.0752674e-20 5.250262e-39 -1.7196066e-31 -3.90556e-39 -3.91e-43 -1.843e-41 -3.7984e-41
1.8685636e-24 -5.8729198e-12 3.3562272e-16 1.1299499e-12 4.7204392e-31 -2.2750421e-27 -1.13989e-33 -4.601e-41
-2.2327e-41 5.1948e-41 3.1479183e-34 3.4103e-41 6.3007e-41 6.3752e-41 1.2250942e-21 1.7910124e-15
-5.8902e-41 2.052e-41 -7.961806e-31 4.921021e-16 5.263251e-19 4.3764917e-27 3.2562764e-26 -3.4843e-41
-5.156531e-27 -2.4076e-41 -8.212e-42 4.7054e-41 -3.9379e-41 2.8968e-41 -3.142e-41 -2.54726e-21
1.1708356e-23 -2.7817183e-26 2.6776e-41 1.9713e-41 6.496e-42 4.5705e-41 9.939544e-15 1.3864254e-18
0.030123338 0.013456819 -0.0035557847 0.0005901718 0.0007648454 0.02265115 0.006574647 0.005819403
0.025885085 0.03810584 0.027274007 0.022356186 -0.0046923854 -0.016431494 0.030951869 0.006763446
0.017446462 0.008048018 0.0096759405 -0.0062142643 -0.004572466 0.011082483 -0.006166752 0.053284828
0.023391694 0.016194684 0.014649655 -0.0020922015 0.023994645 0.0256391 -0.017941171 0.00016785391
0.04324005 -0.006278349 -0.020171037 -0.025932403 -0.009244558 -0.014412202 -0.04775627 -0.0015537367
0.022124091 -0.003788595 0.0141974585 -0.010157034 -0.068740025 -0.010441559 0.011688488 -0.044390436
-0.015967753 -0.06308601 0.03925126 -0.013522595 -0.018052537 -0.0068453215 0.017152438 -0.0042658555
0.0064374157 0.014312052 -0.014960342 0.020075178 0.017528554 -0.0018273853 0.019551922 0.011335265
0.0027910976 0.011358431 0.009640959 0.0033299334 0.0077948472 0.009317123 0.0021728538 0.005589883
0.042535346 0.045326285 0.012772583 -0.028241524 -0.005936802 -0.034047294 -6.309771e-05 0.0061529595
0.0014685106 -0.0040756543 0.019396001 0.06954759 -0.0050034476 0.04011432 0.008170533 -0.021883361
0.0013061463 -0.0010925933 0.009366939 -0.03343051 -0.077233806 -0.08207869 0.0028727602 0.0048743426
-0.029350284 0.05276311 0.054758962 -0.023713378 -0.0516755 -0.016732225 -0.017581474 -0.03485273
0.006800963 -0.0039495323 -0.0012420659 0.031824462 -0.041289125 -0.029517751 -0.008156188 -0.004746998
-0.00878416 0.016466033 -0.023458347 -0.03181214 0.0063612247 -0.01575459 -0.0031279775 -0.011946857
0.021665206 0.0051613785 -0.015884632 -0.0040255887 0.014563223 0.012175724 -0.015497707 0.009094429
0.010622234 0.0046303803 0.022560965 0.019010827 -0.0015708515 0.0024952027 0.0035223714 0.00070037536
-0.015610002 0.007408415 -0.002919865 0.014150358 0.015993737 0.020432524 -0.03544635 0.03565129
0.052071564 0.014644512 -0.026685975 -0.035873003 -0.012468639 -0.007070597 -0.017439071 0.013555995
-0.0009151085 -0.061700825 0.018227065 -0.0041518398 0.00447639 0.0076212543 0.035659324 0.0026994536
-0.04354272 -0.011510322 -0.066749506 -0.031588472 0.004127192 0.032248586 0.041410793 0.030467596
0.017994301 -0.0004991044 -0.07029614 -0.0366019 -0.0118219275 0.014640143 0.023780748 -0.00077549176
0.009874547 -0.08734059 -0.0022968892 -0.03265657 0.0033157393 -0.021898843 -0.0038274429 0.03924903
-0.01159194 -0.014472554 0.0064253635 0.05136119 -0.01127759 0.031258166 0.044421054 0.0028063112

module.fc.linear.bias f4 [16]
00000000: 6fd0 d63d b535 dbb7 b4fb 113e 407f fab8
00000010: f560 cfb8 e9e9 6b31 9396 ac3d 36f9 9a3d
00000020: 835d e63d f650 60bb 594b 553b 96f9 123e
00000030: 307e 7236 2c9b 223d 1ab5 d39e d8ca f63d
0.10488974 -2.6131844e-05 0.14256173 -0.00011944631 -9.888589e-05 3.4329963e-09 0.08427157 0.075670645
0.11248305 -0.0034227944 0.0032546131 0.14353022 3.613426e-06 0.039698765 -2.2415396e-20 0.12050408

module.out.linear.weight f4 [1, 16]
00000000: f9c3 3cbe ae65 b63b 3f3d ae3d 791f 27b8
00000010: 7f0f 1e3d 9264 b333 fb1d dc3d 9e78 823e
00000020: 1ae0 4fbe a03f 04be d213 5abd 0f18 b03d
00000030: f7c8 88b8 3527 413d 670f 173a fd02 7e3d
-0.18434133 0.0055663204 0.085077755 -3.9845214e-05 0.038588997 8.353631e-08 0.10747906 0.2548265
-0.20300332 -0.12914896 -0.05324156 0.08598339 -6.522418e-05 0.04715653 0.0005762488 0.06201457
